{"config": {"input_layers": [["input_1", 0, 0]], "output_layers": [["dense", 0, 0]], "name": "model", "layers": [{"config": {"batch_input_shape": [null, 48, 48, 3], "sparse": false, "dtype": "float32", "name": "input_1"}, "inbound_nodes": [], "class_name": "InputLayer", "name": "input_1"}, {"config": {"trainable": true, "use_bias": true, "kernel_size": [3, 3], "data_format": "channels_last", "name": "conv2d", "filters": 16, "dtype": "float32", "activity_regularizer": null, "padding": "same", "dilation_rate": [1, 1], "bias_initializer": {"config": {"dtype": "float32"}, "class_name": "Zeros"}, "bias_regularizer": null, "kernel_constraint": null, "kernel_regularizer": {"config": {"l1": 0.0, "l2": 9.999999747378752e-05}, "class_name": "L1L2"}, "kernel_initializer": {"config": {"mode": "fan_in", "seed": null, "distribution": "truncated_normal", "scale": 2.0, "dtype": "float32"}, "class_name": "VarianceScaling"}, "bias_constraint": null, "strides": [1, 1], "activation": "linear"}, "inbound_nodes": [[["input_1", 0, 0, {}]]], "class_name": "Conv2D", "name": "conv2d"}, {"config": {"trainable": true, "gamma_regularizer": null, "scale": true, "beta_regularizer": null, "center": true, "name": "batch_normalization", "dtype": "float32", "axis": [3], "moving_variance_initializer": {"config": {"dtype": "float32"}, "class_name": "Ones"}, "moving_mean_initializer": {"config": {"dtype": "float32"}, "class_name": "Zeros"}, "momentum": 0.99, "gamma_initializer": {"config": {"dtype": "float32"}, "class_name": "Ones"}, "epsilon": 0.001, "gamma_constraint": null, "beta_constraint": null, "beta_initializer": {"config": {"dtype": "float32"}, "class_name": "Zeros"}}, "inbound_nodes": [[["conv2d", 0, 0, {}]]], "class_name": "BatchNormalization", "name": "batch_normalization"}, {"config": {"trainable": true, "dtype": "float32", "activation": "relu", "name": "activation"}, "inbound_nodes": [[["batch_normalization", 0, 0, {}]]], "class_name": "Activation", "name": "activation"}, {"config": {"trainable": true, "use_bias": true, "kernel_size": [3, 3], "data_format": "channels_last", "name": "conv2d_1", "filters": 16, "dtype": "float32", "activity_regularizer": null, "padding": "same", "dilation_rate": [1, 1], "bias_initializer": {"config": {"dtype": "float32"}, "class_name": "Zeros"}, "bias_regularizer": null, "kernel_constraint": null, "kernel_regularizer": {"config": {"l1": 0.0, "l2": 9.999999747378752e-05}, "class_name": "L1L2"}, "kernel_initializer": {"config": {"mode": "fan_in", "seed": null, "distribution": "truncated_normal", "scale": 2.0, "dtype": "float32"}, "class_name": "VarianceScaling"}, "bias_constraint": null, "strides": [1, 1], "activation": "linear"}, "inbound_nodes": [[["activation", 0, 0, {}]]], "class_name": "Conv2D", "name": "conv2d_1"}, {"config": {"trainable": true, "gamma_regularizer": null, "scale": true, "beta_regularizer": null, "center": true, "name": "batch_normalization_1", "dtype": "float32", "axis": [3], "moving_variance_initializer": {"config": {"dtype": "float32"}, "class_name": "Ones"}, "moving_mean_initializer": {"config": {"dtype": "float32"}, "class_name": "Zeros"}, "momentum": 0.99, "gamma_initializer": {"config": {"dtype": "float32"}, "class_name": "Ones"}, "epsilon": 0.001, "gamma_constraint": null, "beta_constraint": null, "beta_initializer": {"config": {"dtype": "float32"}, "class_name": "Zeros"}}, "inbound_nodes": [[["conv2d_1", 0, 0, {}]]], "class_name": "BatchNormalization", "name": "batch_normalization_1"}, {"config": {"trainable": true, "dtype": "float32", "activation": "relu", "name": "activation_1"}, "inbound_nodes": [[["batch_normalization_1", 0, 0, {}]]], "class_name": "Activation", "name": "activation_1"}, {"config": {"trainable": true, "use_bias": true, "kernel_size": [3, 3], "data_format": "channels_last", "name": "conv2d_2", "filters": 16, "dtype": "float32", "activity_regularizer": null, "padding": "same", "dilation_rate": [1, 1], "bias_initializer": {"config": {"dtype": "float32"}, "class_name": "Zeros"}, "bias_regularizer": null, "kernel_constraint": null, "kernel_regularizer": {"config": {"l1": 0.0, "l2": 9.999999747378752e-05}, "class_name": "L1L2"}, "kernel_initializer": {"config": {"mode": "fan_in", "seed": null, "distribution": "truncated_normal", "scale": 2.0, "dtype": "float32"}, "class_name": "VarianceScaling"}, "bias_constraint": null, "strides": [1, 1], "activation": "linear"}, "inbound_nodes": [[["activation_1", 0, 0, {}]]], "class_name": "Conv2D", "name": "conv2d_2"}, {"config": {"trainable": true, "gamma_regularizer": null, "scale": true, "beta_regularizer": null, "center": true, "name": "batch_normalization_2", "dtype": "float32", "axis": [3], "moving_variance_initializer": {"config": {"dtype": "float32"}, "class_name": "Ones"}, "moving_mean_initializer": {"config": {"dtype": "float32"}, "class_name": "Zeros"}, "momentum": 0.99, "gamma_initializer": {"config": {"dtype": "float32"}, "class_name": "Ones"}, "epsilon": 0.001, "gamma_constraint": null, "beta_constraint": null, "beta_initializer": {"config": {"dtype": "float32"}, "class_name": "Zeros"}}, "inbound_nodes": [[["conv2d_2", 0, 0, {}]]], "class_name": "BatchNormalization", "name": "batch_normalization_2"}, {"config": {"trainable": true, "dtype": "float32", "name": "add"}, "inbound_nodes": [[["activation", 0, 0, {}], ["batch_normalization_2", 0, 0, {}]]], "class_name": "Add", "name": "add"}, {"config": {"trainable": true, "dtype": "float32", "activation": "relu", "name": "activation_2"}, "inbound_nodes": [[["add", 0, 0, {}]]], "class_name": "Activation", "name": "activation_2"}, {"config": {"trainable": true, "use_bias": true, "kernel_size": [3, 3], "data_format": "channels_last", "name": "conv2d_3", "filters": 16, "dtype": "float32", "activity_regularizer": null, "padding": "same", "dilation_rate": [1, 1], "bias_initializer": {"config": {"dtype": "float32"}, "class_name": "Zeros"}, "bias_regularizer": null, "kernel_constraint": null, "kernel_regularizer": {"config": {"l1": 0.0, "l2": 9.999999747378752e-05}, "class_name": "L1L2"}, "kernel_initializer": {"config": {"mode": "fan_in", "seed": null, "distribution": "truncated_normal", "scale": 2.0, "dtype": "float32"}, "class_name": "VarianceScaling"}, "bias_constraint": null, "strides": [1, 1], "activation": "linear"}, "inbound_nodes": [[["activation_2", 0, 0, {}]]], "class_name": "Conv2D", "name": "conv2d_3"}, {"config": {"trainable": true, "gamma_regularizer": null, "scale": true, "beta_regularizer": null, "center": true, "name": "batch_normalization_3", "dtype": "float32", "axis": [3], "moving_variance_initializer": {"config": {"dtype": "float32"}, "class_name": "Ones"}, "moving_mean_initializer": {"config": {"dtype": "float32"}, "class_name": "Zeros"}, "momentum": 0.99, "gamma_initializer": {"config": {"dtype": "float32"}, "class_name": "Ones"}, "epsilon": 0.001, "gamma_constraint": null, "beta_constraint": null, "beta_initializer": {"config": {"dtype": "float32"}, "class_name": "Zeros"}}, "inbound_nodes": [[["conv2d_3", 0, 0, {}]]], "class_name": "BatchNormalization", "name": "batch_normalization_3"}, {"config": {"trainable": true, "dtype": "float32", "activation": "relu", "name": "activation_3"}, "inbound_nodes": [[["batch_normalization_3", 0, 0, {}]]], "class_name": "Activation", "name": "activation_3"}, {"config": {"trainable": true, "use_bias": true, "kernel_size": [3, 3], "data_format": "channels_last", "name": "conv2d_4", "filters": 16, "dtype": "float32", "activity_regularizer": null, "padding": "same", "dilation_rate": [1, 1], "bias_initializer": {"config": {"dtype": "float32"}, "class_name": "Zeros"}, "bias_regularizer": null, "kernel_constraint": null, "kernel_regularizer": {"config": {"l1": 0.0, "l2": 9.999999747378752e-05}, "class_name": "L1L2"}, "kernel_initializer": {"config": {"mode": "fan_in", "seed": null, "distribution": "truncated_normal", "scale": 2.0, "dtype": "float32"}, "class_name": "VarianceScaling"}, "bias_constraint": null, "strides": [1, 1], "activation": "linear"}, "inbound_nodes": [[["activation_3", 0, 0, {}]]], "class_name": "Conv2D", "name": "conv2d_4"}, {"config": {"trainable": true, "gamma_regularizer": null, "scale": true, "beta_regularizer": null, "center": true, "name": "batch_normalization_4", "dtype": "float32", "axis": [3], "moving_variance_initializer": {"config": {"dtype": "float32"}, "class_name": "Ones"}, "moving_mean_initializer": {"config": {"dtype": "float32"}, "class_name": "Zeros"}, "momentum": 0.99, "gamma_initializer": {"config": {"dtype": "float32"}, "class_name": "Ones"}, "epsilon": 0.001, "gamma_constraint": null, "beta_constraint": null, "beta_initializer": {"config": {"dtype": "float32"}, "class_name": "Zeros"}}, "inbound_nodes": [[["conv2d_4", 0, 0, {}]]], "class_name": "BatchNormalization", "name": "batch_normalization_4"}, {"config": {"trainable": true, "dtype": "float32", "name": "add_1"}, "inbound_nodes": [[["activation_2", 0, 0, {}], ["batch_normalization_4", 0, 0, {}]]], "class_name": "Add", "name": "add_1"}, {"config": {"trainable": true, "dtype": "float32", "activation": "relu", "name": "activation_4"}, "inbound_nodes": [[["add_1", 0, 0, {}]]], "class_name": "Activation", "name": "activation_4"}, {"config": {"trainable": true, "use_bias": true, "kernel_size": [3, 3], "data_format": "channels_last", "name": "conv2d_5", "filters": 16, "dtype": "float32", "activity_regularizer": null, "padding": "same", "dilation_rate": [1, 1], "bias_initializer": {"config": {"dtype": "float32"}, "class_name": "Zeros"}, "bias_regularizer": null, "kernel_constraint": null, "kernel_regularizer": {"config": {"l1": 0.0, "l2": 9.999999747378752e-05}, "class_name": "L1L2"}, "kernel_initializer": {"config": {"mode": "fan_in", "seed": null, "distribution": "truncated_normal", "scale": 2.0, "dtype": "float32"}, "class_name": "VarianceScaling"}, "bias_constraint": null, "strides": [1, 1], "activation": "linear"}, "inbound_nodes": [[["activation_4", 0, 0, {}]]], "class_name": "Conv2D", "name": "conv2d_5"}, {"config": {"trainable": true, "gamma_regularizer": null, "scale": true, "beta_regularizer": null, "center": true, "name": "batch_normalization_5", "dtype": "float32", "axis": [3], "moving_variance_initializer": {"config": {"dtype": "float32"}, "class_name": "Ones"}, "moving_mean_initializer": {"config": {"dtype": "float32"}, "class_name": "Zeros"}, "momentum": 0.99, "gamma_initializer": {"config": {"dtype": "float32"}, "class_name": "Ones"}, "epsilon": 0.001, "gamma_constraint": null, "beta_constraint": null, "beta_initializer": {"config": {"dtype": "float32"}, "class_name": "Zeros"}}, "inbound_nodes": [[["conv2d_5", 0, 0, {}]]], "class_name": "BatchNormalization", "name": "batch_normalization_5"}, {"config": {"trainable": true, "dtype": "float32", "activation": "relu", "name": "activation_5"}, "inbound_nodes": [[["batch_normalization_5", 0, 0, {}]]], "class_name": "Activation", "name": "activation_5"}, {"config": {"trainable": true, "use_bias": true, "kernel_size": [3, 3], "data_format": "channels_last", "name": "conv2d_6", "filters": 16, "dtype": "float32", "activity_regularizer": null, "padding": "same", "dilation_rate": [1, 1], "bias_initializer": {"config": {"dtype": "float32"}, "class_name": "Zeros"}, "bias_regularizer": null, "kernel_constraint": null, "kernel_regularizer": {"config": {"l1": 0.0, "l2": 9.999999747378752e-05}, "class_name": "L1L2"}, "kernel_initializer": {"config": {"mode": "fan_in", "seed": null, "distribution": "truncated_normal", "scale": 2.0, "dtype": "float32"}, "class_name": "VarianceScaling"}, "bias_constraint": null, "strides": [1, 1], "activation": "linear"}, "inbound_nodes": [[["activation_5", 0, 0, {}]]], "class_name": "Conv2D", "name": "conv2d_6"}, {"config": {"trainable": true, "gamma_regularizer": null, "scale": true, "beta_regularizer": null, "center": true, "name": "batch_normalization_6", "dtype": "float32", "axis": [3], "moving_variance_initializer": {"config": {"dtype": "float32"}, "class_name": "Ones"}, "moving_mean_initializer": {"config": {"dtype": "float32"}, "class_name": "Zeros"}, "momentum": 0.99, "gamma_initializer": {"config": {"dtype": "float32"}, "class_name": "Ones"}, "epsilon": 0.001, "gamma_constraint": null, "beta_constraint": null, "beta_initializer": {"config": {"dtype": "float32"}, "class_name": "Zeros"}}, "inbound_nodes": [[["conv2d_6", 0, 0, {}]]], "class_name": "BatchNormalization", "name": "batch_normalization_6"}, {"config": {"trainable": true, "dtype": "float32", "name": "add_2"}, "inbound_nodes": [[["activation_4", 0, 0, {}], ["batch_normalization_6", 0, 0, {}]]], "class_name": "Add", "name": "add_2"}, {"config": {"trainable": true, "dtype": "float32", "activation": "relu", "name": "activation_6"}, "inbound_nodes": [[["add_2", 0, 0, {}]]], "class_name": "Activation", "name": "activation_6"}, {"config": {"trainable": true, "use_bias": true, "kernel_size": [3, 3], "data_format": "channels_last", "name": "conv2d_7", "filters": 32, "dtype": "float32", "activity_regularizer": null, "padding": "same", "dilation_rate": [1, 1], "bias_initializer": {"config": {"dtype": "float32"}, "class_name": "Zeros"}, "bias_regularizer": null, "kernel_constraint": null, "kernel_regularizer": {"config": {"l1": 0.0, "l2": 9.999999747378752e-05}, "class_name": "L1L2"}, "kernel_initializer": {"config": {"mode": "fan_in", "seed": null, "distribution": "truncated_normal", "scale": 2.0, "dtype": "float32"}, "class_name": "VarianceScaling"}, "bias_constraint": null, "strides": [2, 2], "activation": "linear"}, "inbound_nodes": [[["activation_6", 0, 0, {}]]], "class_name": "Conv2D", "name": "conv2d_7"}, {"config": {"trainable": true, "gamma_regularizer": null, "scale": true, "beta_regularizer": null, "center": true, "name": "batch_normalization_7", "dtype": "float32", "axis": [3], "moving_variance_initializer": {"config": {"dtype": "float32"}, "class_name": "Ones"}, "moving_mean_initializer": {"config": {"dtype": "float32"}, "class_name": "Zeros"}, "momentum": 0.99, "gamma_initializer": {"config": {"dtype": "float32"}, "class_name": "Ones"}, "epsilon": 0.001, "gamma_constraint": null, "beta_constraint": null, "beta_initializer": {"config": {"dtype": "float32"}, "class_name": "Zeros"}}, "inbound_nodes": [[["conv2d_7", 0, 0, {}]]], "class_name": "BatchNormalization", "name": "batch_normalization_7"}, {"config": {"trainable": true, "dtype": "float32", "activation": "relu", "name": "activation_7"}, "inbound_nodes": [[["batch_normalization_7", 0, 0, {}]]], "class_name": "Activation", "name": "activation_7"}, {"config": {"trainable": true, "use_bias": true, "kernel_size": [3, 3], "data_format": "channels_last", "name": "conv2d_8", "filters": 32, "dtype": "float32", "activity_regularizer": null, "padding": "same", "dilation_rate": [1, 1], "bias_initializer": {"config": {"dtype": "float32"}, "class_name": "Zeros"}, "bias_regularizer": null, "kernel_constraint": null, "kernel_regularizer": {"config": {"l1": 0.0, "l2": 9.999999747378752e-05}, "class_name": "L1L2"}, "kernel_initializer": {"config": {"mode": "fan_in", "seed": null, "distribution": "truncated_normal", "scale": 2.0, "dtype": "float32"}, "class_name": "VarianceScaling"}, "bias_constraint": null, "strides": [1, 1], "activation": "linear"}, "inbound_nodes": [[["activation_7", 0, 0, {}]]], "class_name": "Conv2D", "name": "conv2d_8"}, {"config": {"trainable": true, "use_bias": true, "kernel_size": [1, 1], "data_format": "channels_last", "name": "conv2d_9", "filters": 32, "dtype": "float32", "activity_regularizer": null, "padding": "same", "dilation_rate": [1, 1], "bias_initializer": {"config": {"dtype": "float32"}, "class_name": "Zeros"}, "bias_regularizer": null, "kernel_constraint": null, "kernel_regularizer": {"config": {"l1": 0.0, "l2": 9.999999747378752e-05}, "class_name": "L1L2"}, "kernel_initializer": {"config": {"mode": "fan_in", "seed": null, "distribution": "truncated_normal", "scale": 2.0, "dtype": "float32"}, "class_name": "VarianceScaling"}, "bias_constraint": null, "strides": [2, 2], "activation": "linear"}, "inbound_nodes": [[["activation_6", 0, 0, {}]]], "class_name": "Conv2D", "name": "conv2d_9"}, {"config": {"trainable": true, "gamma_regularizer": null, "scale": true, "beta_regularizer": null, "center": true, "name": "batch_normalization_8", "dtype": "float32", "axis": [3], "moving_variance_initializer": {"config": {"dtype": "float32"}, "class_name": "Ones"}, "moving_mean_initializer": {"config": {"dtype": "float32"}, "class_name": "Zeros"}, "momentum": 0.99, "gamma_initializer": {"config": {"dtype": "float32"}, "class_name": "Ones"}, "epsilon": 0.001, "gamma_constraint": null, "beta_constraint": null, "beta_initializer": {"config": {"dtype": "float32"}, "class_name": "Zeros"}}, "inbound_nodes": [[["conv2d_8", 0, 0, {}]]], "class_name": "BatchNormalization", "name": "batch_normalization_8"}, {"config": {"trainable": true, "dtype": "float32", "name": "add_3"}, "inbound_nodes": [[["conv2d_9", 0, 0, {}], ["batch_normalization_8", 0, 0, {}]]], "class_name": "Add", "name": "add_3"}, {"config": {"trainable": true, "dtype": "float32", "activation": "relu", "name": "activation_8"}, "inbound_nodes": [[["add_3", 0, 0, {}]]], "class_name": "Activation", "name": "activation_8"}, {"config": {"trainable": true, "use_bias": true, "kernel_size": [3, 3], "data_format": "channels_last", "name": "conv2d_10", "filters": 32, "dtype": "float32", "activity_regularizer": null, "padding": "same", "dilation_rate": [1, 1], "bias_initializer": {"config": {"dtype": "float32"}, "class_name": "Zeros"}, "bias_regularizer": null, "kernel_constraint": null, "kernel_regularizer": {"config": {"l1": 0.0, "l2": 9.999999747378752e-05}, "class_name": "L1L2"}, "kernel_initializer": {"config": {"mode": "fan_in", "seed": null, "distribution": "truncated_normal", "scale": 2.0, "dtype": "float32"}, "class_name": "VarianceScaling"}, "bias_constraint": null, "strides": [1, 1], "activation": "linear"}, "inbound_nodes": [[["activation_8", 0, 0, {}]]], "class_name": "Conv2D", "name": "conv2d_10"}, {"config": {"trainable": true, "gamma_regularizer": null, "scale": true, "beta_regularizer": null, "center": true, "name": "batch_normalization_9", "dtype": "float32", "axis": [3], "moving_variance_initializer": {"config": {"dtype": "float32"}, "class_name": "Ones"}, "moving_mean_initializer": {"config": {"dtype": "float32"}, "class_name": "Zeros"}, "momentum": 0.99, "gamma_initializer": {"config": {"dtype": "float32"}, "class_name": "Ones"}, "epsilon": 0.001, "gamma_constraint": null, "beta_constraint": null, "beta_initializer": {"config": {"dtype": "float32"}, "class_name": "Zeros"}}, "inbound_nodes": [[["conv2d_10", 0, 0, {}]]], "class_name": "BatchNormalization", "name": "batch_normalization_9"}, {"config": {"trainable": true, "dtype": "float32", "activation": "relu", "name": "activation_9"}, "inbound_nodes": [[["batch_normalization_9", 0, 0, {}]]], "class_name": "Activation", "name": "activation_9"}, {"config": {"trainable": true, "use_bias": true, "kernel_size": [3, 3], "data_format": "channels_last", "name": "conv2d_11", "filters": 32, "dtype": "float32", "activity_regularizer": null, "padding": "same", "dilation_rate": [1, 1], "bias_initializer": {"config": {"dtype": "float32"}, "class_name": "Zeros"}, "bias_regularizer": null, "kernel_constraint": null, "kernel_regularizer": {"config": {"l1": 0.0, "l2": 9.999999747378752e-05}, "class_name": "L1L2"}, "kernel_initializer": {"config": {"mode": "fan_in", "seed": null, "distribution": "truncated_normal", "scale": 2.0, "dtype": "float32"}, "class_name": "VarianceScaling"}, "bias_constraint": null, "strides": [1, 1], "activation": "linear"}, "inbound_nodes": [[["activation_9", 0, 0, {}]]], "class_name": "Conv2D", "name": "conv2d_11"}, {"config": {"trainable": true, "gamma_regularizer": null, "scale": true, "beta_regularizer": null, "center": true, "name": "batch_normalization_10", "dtype": "float32", "axis": [3], "moving_variance_initializer": {"config": {"dtype": "float32"}, "class_name": "Ones"}, "moving_mean_initializer": {"config": {"dtype": "float32"}, "class_name": "Zeros"}, "momentum": 0.99, "gamma_initializer": {"config": {"dtype": "float32"}, "class_name": "Ones"}, "epsilon": 0.001, "gamma_constraint": null, "beta_constraint": null, "beta_initializer": {"config": {"dtype": "float32"}, "class_name": "Zeros"}}, "inbound_nodes": [[["conv2d_11", 0, 0, {}]]], "class_name": "BatchNormalization", "name": "batch_normalization_10"}, {"config": {"trainable": true, "dtype": "float32", "name": "add_4"}, "inbound_nodes": [[["activation_8", 0, 0, {}], ["batch_normalization_10", 0, 0, {}]]], "class_name": "Add", "name": "add_4"}, {"config": {"trainable": true, "dtype": "float32", "activation": "relu", "name": "activation_10"}, "inbound_nodes": [[["add_4", 0, 0, {}]]], "class_name": "Activation", "name": "activation_10"}, {"config": {"trainable": true, "use_bias": true, "kernel_size": [3, 3], "data_format": "channels_last", "name": "conv2d_12", "filters": 32, "dtype": "float32", "activity_regularizer": null, "padding": "same", "dilation_rate": [1, 1], "bias_initializer": {"config": {"dtype": "float32"}, "class_name": "Zeros"}, "bias_regularizer": null, "kernel_constraint": null, "kernel_regularizer": {"config": {"l1": 0.0, "l2": 9.999999747378752e-05}, "class_name": "L1L2"}, "kernel_initializer": {"config": {"mode": "fan_in", "seed": null, "distribution": "truncated_normal", "scale": 2.0, "dtype": "float32"}, "class_name": "VarianceScaling"}, "bias_constraint": null, "strides": [1, 1], "activation": "linear"}, "inbound_nodes": [[["activation_10", 0, 0, {}]]], "class_name": "Conv2D", "name": "conv2d_12"}, {"config": {"trainable": true, "gamma_regularizer": null, "scale": true, "beta_regularizer": null, "center": true, "name": "batch_normalization_11", "dtype": "float32", "axis": [3], "moving_variance_initializer": {"config": {"dtype": "float32"}, "class_name": "Ones"}, "moving_mean_initializer": {"config": {"dtype": "float32"}, "class_name": "Zeros"}, "momentum": 0.99, "gamma_initializer": {"config": {"dtype": "float32"}, "class_name": "Ones"}, "epsilon": 0.001, "gamma_constraint": null, "beta_constraint": null, "beta_initializer": {"config": {"dtype": "float32"}, "class_name": "Zeros"}}, "inbound_nodes": [[["conv2d_12", 0, 0, {}]]], "class_name": "BatchNormalization", "name": "batch_normalization_11"}, {"config": {"trainable": true, "dtype": "float32", "activation": "relu", "name": "activation_11"}, "inbound_nodes": [[["batch_normalization_11", 0, 0, {}]]], "class_name": "Activation", "name": "activation_11"}, {"config": {"trainable": true, "use_bias": true, "kernel_size": [3, 3], "data_format": "channels_last", "name": "conv2d_13", "filters": 32, "dtype": "float32", "activity_regularizer": null, "padding": "same", "dilation_rate": [1, 1], "bias_initializer": {"config": {"dtype": "float32"}, "class_name": "Zeros"}, "bias_regularizer": null, "kernel_constraint": null, "kernel_regularizer": {"config": {"l1": 0.0, "l2": 9.999999747378752e-05}, "class_name": "L1L2"}, "kernel_initializer": {"config": {"mode": "fan_in", "seed": null, "distribution": "truncated_normal", "scale": 2.0, "dtype": "float32"}, "class_name": "VarianceScaling"}, "bias_constraint": null, "strides": [1, 1], "activation": "linear"}, "inbound_nodes": [[["activation_11", 0, 0, {}]]], "class_name": "Conv2D", "name": "conv2d_13"}, {"config": {"trainable": true, "gamma_regularizer": null, "scale": true, "beta_regularizer": null, "center": true, "name": "batch_normalization_12", "dtype": "float32", "axis": [3], "moving_variance_initializer": {"config": {"dtype": "float32"}, "class_name": "Ones"}, "moving_mean_initializer": {"config": {"dtype": "float32"}, "class_name": "Zeros"}, "momentum": 0.99, "gamma_initializer": {"config": {"dtype": "float32"}, "class_name": "Ones"}, "epsilon": 0.001, "gamma_constraint": null, "beta_constraint": null, "beta_initializer": {"config": {"dtype": "float32"}, "class_name": "Zeros"}}, "inbound_nodes": [[["conv2d_13", 0, 0, {}]]], "class_name": "BatchNormalization", "name": "batch_normalization_12"}, {"config": {"trainable": true, "dtype": "float32", "name": "add_5"}, "inbound_nodes": [[["activation_10", 0, 0, {}], ["batch_normalization_12", 0, 0, {}]]], "class_name": "Add", "name": "add_5"}, {"config": {"trainable": true, "dtype": "float32", "activation": "relu", "name": "activation_12"}, "inbound_nodes": [[["add_5", 0, 0, {}]]], "class_name": "Activation", "name": "activation_12"}, {"config": {"trainable": true, "use_bias": true, "kernel_size": [3, 3], "data_format": "channels_last", "name": "conv2d_14", "filters": 64, "dtype": "float32", "activity_regularizer": null, "padding": "same", "dilation_rate": [1, 1], "bias_initializer": {"config": {"dtype": "float32"}, "class_name": "Zeros"}, "bias_regularizer": null, "kernel_constraint": null, "kernel_regularizer": {"config": {"l1": 0.0, "l2": 9.999999747378752e-05}, "class_name": "L1L2"}, "kernel_initializer": {"config": {"mode": "fan_in", "seed": null, "distribution": "truncated_normal", "scale": 2.0, "dtype": "float32"}, "class_name": "VarianceScaling"}, "bias_constraint": null, "strides": [2, 2], "activation": "linear"}, "inbound_nodes": [[["activation_12", 0, 0, {}]]], "class_name": "Conv2D", "name": "conv2d_14"}, {"config": {"trainable": true, "gamma_regularizer": null, "scale": true, "beta_regularizer": null, "center": true, "name": "batch_normalization_13", "dtype": "float32", "axis": [3], "moving_variance_initializer": {"config": {"dtype": "float32"}, "class_name": "Ones"}, "moving_mean_initializer": {"config": {"dtype": "float32"}, "class_name": "Zeros"}, "momentum": 0.99, "gamma_initializer": {"config": {"dtype": "float32"}, "class_name": "Ones"}, "epsilon": 0.001, "gamma_constraint": null, "beta_constraint": null, "beta_initializer": {"config": {"dtype": "float32"}, "class_name": "Zeros"}}, "inbound_nodes": [[["conv2d_14", 0, 0, {}]]], "class_name": "BatchNormalization", "name": "batch_normalization_13"}, {"config": {"trainable": true, "dtype": "float32", "activation": "relu", "name": "activation_13"}, "inbound_nodes": [[["batch_normalization_13", 0, 0, {}]]], "class_name": "Activation", "name": "activation_13"}, {"config": {"trainable": true, "use_bias": true, "kernel_size": [3, 3], "data_format": "channels_last", "name": "conv2d_15", "filters": 64, "dtype": "float32", "activity_regularizer": null, "padding": "same", "dilation_rate": [1, 1], "bias_initializer": {"config": {"dtype": "float32"}, "class_name": "Zeros"}, "bias_regularizer": null, "kernel_constraint": null, "kernel_regularizer": {"config": {"l1": 0.0, "l2": 9.999999747378752e-05}, "class_name": "L1L2"}, "kernel_initializer": {"config": {"mode": "fan_in", "seed": null, "distribution": "truncated_normal", "scale": 2.0, "dtype": "float32"}, "class_name": "VarianceScaling"}, "bias_constraint": null, "strides": [1, 1], "activation": "linear"}, "inbound_nodes": [[["activation_13", 0, 0, {}]]], "class_name": "Conv2D", "name": "conv2d_15"}, {"config": {"trainable": true, "use_bias": true, "kernel_size": [1, 1], "data_format": "channels_last", "name": "conv2d_16", "filters": 64, "dtype": "float32", "activity_regularizer": null, "padding": "same", "dilation_rate": [1, 1], "bias_initializer": {"config": {"dtype": "float32"}, "class_name": "Zeros"}, "bias_regularizer": null, "kernel_constraint": null, "kernel_regularizer": {"config": {"l1": 0.0, "l2": 9.999999747378752e-05}, "class_name": "L1L2"}, "kernel_initializer": {"config": {"mode": "fan_in", "seed": null, "distribution": "truncated_normal", "scale": 2.0, "dtype": "float32"}, "class_name": "VarianceScaling"}, "bias_constraint": null, "strides": [2, 2], "activation": "linear"}, "inbound_nodes": [[["activation_12", 0, 0, {}]]], "class_name": "Conv2D", "name": "conv2d_16"}, {"config": {"trainable": true, "gamma_regularizer": null, "scale": true, "beta_regularizer": null, "center": true, "name": "batch_normalization_14", "dtype": "float32", "axis": [3], "moving_variance_initializer": {"config": {"dtype": "float32"}, "class_name": "Ones"}, "moving_mean_initializer": {"config": {"dtype": "float32"}, "class_name": "Zeros"}, "momentum": 0.99, "gamma_initializer": {"config": {"dtype": "float32"}, "class_name": "Ones"}, "epsilon": 0.001, "gamma_constraint": null, "beta_constraint": null, "beta_initializer": {"config": {"dtype": "float32"}, "class_name": "Zeros"}}, "inbound_nodes": [[["conv2d_15", 0, 0, {}]]], "class_name": "BatchNormalization", "name": "batch_normalization_14"}, {"config": {"trainable": true, "dtype": "float32", "name": "add_6"}, "inbound_nodes": [[["conv2d_16", 0, 0, {}], ["batch_normalization_14", 0, 0, {}]]], "class_name": "Add", "name": "add_6"}, {"config": {"trainable": true, "dtype": "float32", "activation": "relu", "name": "activation_14"}, "inbound_nodes": [[["add_6", 0, 0, {}]]], "class_name": "Activation", "name": "activation_14"}, {"config": {"trainable": true, "use_bias": true, "kernel_size": [3, 3], "data_format": "channels_last", "name": "conv2d_17", "filters": 64, "dtype": "float32", "activity_regularizer": null, "padding": "same", "dilation_rate": [1, 1], "bias_initializer": {"config": {"dtype": "float32"}, "class_name": "Zeros"}, "bias_regularizer": null, "kernel_constraint": null, "kernel_regularizer": {"config": {"l1": 0.0, "l2": 9.999999747378752e-05}, "class_name": "L1L2"}, "kernel_initializer": {"config": {"mode": "fan_in", "seed": null, "distribution": "truncated_normal", "scale": 2.0, "dtype": "float32"}, "class_name": "VarianceScaling"}, "bias_constraint": null, "strides": [1, 1], "activation": "linear"}, "inbound_nodes": [[["activation_14", 0, 0, {}]]], "class_name": "Conv2D", "name": "conv2d_17"}, {"config": {"trainable": true, "gamma_regularizer": null, "scale": true, "beta_regularizer": null, "center": true, "name": "batch_normalization_15", "dtype": "float32", "axis": [3], "moving_variance_initializer": {"config": {"dtype": "float32"}, "class_name": "Ones"}, "moving_mean_initializer": {"config": {"dtype": "float32"}, "class_name": "Zeros"}, "momentum": 0.99, "gamma_initializer": {"config": {"dtype": "float32"}, "class_name": "Ones"}, "epsilon": 0.001, "gamma_constraint": null, "beta_constraint": null, "beta_initializer": {"config": {"dtype": "float32"}, "class_name": "Zeros"}}, "inbound_nodes": [[["conv2d_17", 0, 0, {}]]], "class_name": "BatchNormalization", "name": "batch_normalization_15"}, {"config": {"trainable": true, "dtype": "float32", "activation": "relu", "name": "activation_15"}, "inbound_nodes": [[["batch_normalization_15", 0, 0, {}]]], "class_name": "Activation", "name": "activation_15"}, {"config": {"trainable": true, "use_bias": true, "kernel_size": [3, 3], "data_format": "channels_last", "name": "conv2d_18", "filters": 64, "dtype": "float32", "activity_regularizer": null, "padding": "same", "dilation_rate": [1, 1], "bias_initializer": {"config": {"dtype": "float32"}, "class_name": "Zeros"}, "bias_regularizer": null, "kernel_constraint": null, "kernel_regularizer": {"config": {"l1": 0.0, "l2": 9.999999747378752e-05}, "class_name": "L1L2"}, "kernel_initializer": {"config": {"mode": "fan_in", "seed": null, "distribution": "truncated_normal", "scale": 2.0, "dtype": "float32"}, "class_name": "VarianceScaling"}, "bias_constraint": null, "strides": [1, 1], "activation": "linear"}, "inbound_nodes": [[["activation_15", 0, 0, {}]]], "class_name": "Conv2D", "name": "conv2d_18"}, {"config": {"trainable": true, "gamma_regularizer": null, "scale": true, "beta_regularizer": null, "center": true, "name": "batch_normalization_16", "dtype": "float32", "axis": [3], "moving_variance_initializer": {"config": {"dtype": "float32"}, "class_name": "Ones"}, "moving_mean_initializer": {"config": {"dtype": "float32"}, "class_name": "Zeros"}, "momentum": 0.99, "gamma_initializer": {"config": {"dtype": "float32"}, "class_name": "Ones"}, "epsilon": 0.001, "gamma_constraint": null, "beta_constraint": null, "beta_initializer": {"config": {"dtype": "float32"}, "class_name": "Zeros"}}, "inbound_nodes": [[["conv2d_18", 0, 0, {}]]], "class_name": "BatchNormalization", "name": "batch_normalization_16"}, {"config": {"trainable": true, "dtype": "float32", "name": "add_7"}, "inbound_nodes": [[["activation_14", 0, 0, {}], ["batch_normalization_16", 0, 0, {}]]], "class_name": "Add", "name": "add_7"}, {"config": {"trainable": true, "dtype": "float32", "activation": "relu", "name": "activation_16"}, "inbound_nodes": [[["add_7", 0, 0, {}]]], "class_name": "Activation", "name": "activation_16"}, {"config": {"trainable": true, "use_bias": true, "kernel_size": [3, 3], "data_format": "channels_last", "name": "conv2d_19", "filters": 64, "dtype": "float32", "activity_regularizer": null, "padding": "same", "dilation_rate": [1, 1], "bias_initializer": {"config": {"dtype": "float32"}, "class_name": "Zeros"}, "bias_regularizer": null, "kernel_constraint": null, "kernel_regularizer": {"config": {"l1": 0.0, "l2": 9.999999747378752e-05}, "class_name": "L1L2"}, "kernel_initializer": {"config": {"mode": "fan_in", "seed": null, "distribution": "truncated_normal", "scale": 2.0, "dtype": "float32"}, "class_name": "VarianceScaling"}, "bias_constraint": null, "strides": [1, 1], "activation": "linear"}, "inbound_nodes": [[["activation_16", 0, 0, {}]]], "class_name": "Conv2D", "name": "conv2d_19"}, {"config": {"trainable": true, "gamma_regularizer": null, "scale": true, "beta_regularizer": null, "center": true, "name": "batch_normalization_17", "dtype": "float32", "axis": [3], "moving_variance_initializer": {"config": {"dtype": "float32"}, "class_name": "Ones"}, "moving_mean_initializer": {"config": {"dtype": "float32"}, "class_name": "Zeros"}, "momentum": 0.99, "gamma_initializer": {"config": {"dtype": "float32"}, "class_name": "Ones"}, "epsilon": 0.001, "gamma_constraint": null, "beta_constraint": null, "beta_initializer": {"config": {"dtype": "float32"}, "class_name": "Zeros"}}, "inbound_nodes": [[["conv2d_19", 0, 0, {}]]], "class_name": "BatchNormalization", "name": "batch_normalization_17"}, {"config": {"trainable": true, "dtype": "float32", "activation": "relu", "name": "activation_17"}, "inbound_nodes": [[["batch_normalization_17", 0, 0, {}]]], "class_name": "Activation", "name": "activation_17"}, {"config": {"trainable": true, "use_bias": true, "kernel_size": [3, 3], "data_format": "channels_last", "name": "conv2d_20", "filters": 64, "dtype": "float32", "activity_regularizer": null, "padding": "same", "dilation_rate": [1, 1], "bias_initializer": {"config": {"dtype": "float32"}, "class_name": "Zeros"}, "bias_regularizer": null, "kernel_constraint": null, "kernel_regularizer": {"config": {"l1": 0.0, "l2": 9.999999747378752e-05}, "class_name": "L1L2"}, "kernel_initializer": {"config": {"mode": "fan_in", "seed": null, "distribution": "truncated_normal", "scale": 2.0, "dtype": "float32"}, "class_name": "VarianceScaling"}, "bias_constraint": null, "strides": [1, 1], "activation": "linear"}, "inbound_nodes": [[["activation_17", 0, 0, {}]]], "class_name": "Conv2D", "name": "conv2d_20"}, {"config": {"trainable": true, "gamma_regularizer": null, "scale": true, "beta_regularizer": null, "center": true, "name": "batch_normalization_18", "dtype": "float32", "axis": [3], "moving_variance_initializer": {"config": {"dtype": "float32"}, "class_name": "Ones"}, "moving_mean_initializer": {"config": {"dtype": "float32"}, "class_name": "Zeros"}, "momentum": 0.99, "gamma_initializer": {"config": {"dtype": "float32"}, "class_name": "Ones"}, "epsilon": 0.001, "gamma_constraint": null, "beta_constraint": null, "beta_initializer": {"config": {"dtype": "float32"}, "class_name": "Zeros"}}, "inbound_nodes": [[["conv2d_20", 0, 0, {}]]], "class_name": "BatchNormalization", "name": "batch_normalization_18"}, {"config": {"trainable": true, "dtype": "float32", "name": "add_8"}, "inbound_nodes": [[["activation_16", 0, 0, {}], ["batch_normalization_18", 0, 0, {}]]], "class_name": "Add", "name": "add_8"}, {"config": {"trainable": true, "dtype": "float32", "activation": "relu", "name": "activation_18"}, "inbound_nodes": [[["add_8", 0, 0, {}]]], "class_name": "Activation", "name": "activation_18"}, {"config": {"trainable": true, "strides": [2, 2], "data_format": "channels_last", "name": "average_pooling2d", "dtype": "float32", "pool_size": [2, 2], "padding": "valid"}, "inbound_nodes": [[["activation_18", 0, 0, {}]]], "class_name": "AveragePooling2D", "name": "average_pooling2d"}, {"config": {"trainable": true, "dtype": "float32", "data_format": "channels_last", "name": "flatten"}, "inbound_nodes": [[["average_pooling2d", 0, 0, {}]]], "class_name": "Flatten", "name": "flatten"}, {"config": {"trainable": true, "use_bias": true, "activation": "softmax", "name": "dense", "dtype": "float32", "bias_regularizer": null, "activity_regularizer": null, "kernel_initializer": {"config": {"mode": "fan_in", "seed": null, "distribution": "truncated_normal", "scale": 2.0, "dtype": "float32"}, "class_name": "VarianceScaling"}, "kernel_constraint": null, "kernel_regularizer": null, "bias_initializer": {"config": {"dtype": "float32"}, "class_name": "Zeros"}, "bias_constraint": null, "units": 2}, "inbound_nodes": [[["flatten", 0, 0, {}]]], "class_name": "Dense", "name": "dense"}]}, "backend": "tensorflow", "class_name": "Model", "keras_version": "2.1.6-tf"}