{"config": {"layers": [{"inbound_nodes": [], "name": "input_1", "config": {"batch_input_shape": [null, 48, 48, 3], "name": "input_1", "dtype": "float32", "sparse": false}, "class_name": "InputLayer"}, {"inbound_nodes": [[["input_1", 0, 0, {}]]], "name": "conv2d", "config": {"activation": "linear", "bias_initializer": {"config": {"dtype": "float32"}, "class_name": "Zeros"}, "padding": "same", "kernel_constraint": null, "use_bias": true, "trainable": true, "dtype": "float32", "bias_regularizer": null, "name": "conv2d", "dilation_rate": [1, 1], "filters": 16, "bias_constraint": null, "kernel_initializer": {"config": {"mode": "fan_in", "distribution": "truncated_normal", "dtype": "float32", "seed": null, "scale": 2.0}, "class_name": "VarianceScaling"}, "kernel_size": [3, 3], "data_format": "channels_last", "strides": [1, 1], "kernel_regularizer": {"config": {"l1": 0.0, "l2": 9.999999747378752e-05}, "class_name": "L1L2"}, "activity_regularizer": null}, "class_name": "Conv2D"}, {"inbound_nodes": [[["conv2d", 0, 0, {}]]], "name": "batch_normalization", "config": {"center": true, "moving_variance_initializer": {"config": {"dtype": "float32"}, "class_name": "Ones"}, "gamma_constraint": null, "beta_constraint": null, "epsilon": 0.001, "axis": [3], "trainable": true, "beta_regularizer": null, "scale": true, "gamma_regularizer": null, "dtype": "float32", "gamma_initializer": {"config": {"dtype": "float32"}, "class_name": "Ones"}, "name": "batch_normalization", "moving_mean_initializer": {"config": {"dtype": "float32"}, "class_name": "Zeros"}, "momentum": 0.99, "beta_initializer": {"config": {"dtype": "float32"}, "class_name": "Zeros"}}, "class_name": "BatchNormalization"}, {"inbound_nodes": [[["batch_normalization", 0, 0, {}]]], "name": "activation", "config": {"activation": "relu", "dtype": "float32", "name": "activation", "trainable": true}, "class_name": "Activation"}, {"inbound_nodes": [[["activation", 0, 0, {}]]], "name": "conv2d_1", "config": {"activation": "linear", "bias_initializer": {"config": {"dtype": "float32"}, "class_name": "Zeros"}, "padding": "same", "kernel_constraint": null, "use_bias": true, "trainable": true, "dtype": "float32", "bias_regularizer": null, "name": "conv2d_1", "dilation_rate": [1, 1], "filters": 16, "bias_constraint": null, "kernel_initializer": {"config": {"mode": "fan_in", "distribution": "truncated_normal", "dtype": "float32", "seed": null, "scale": 2.0}, "class_name": "VarianceScaling"}, "kernel_size": [3, 3], "data_format": "channels_last", "strides": [1, 1], "kernel_regularizer": {"config": {"l1": 0.0, "l2": 9.999999747378752e-05}, "class_name": "L1L2"}, "activity_regularizer": null}, "class_name": "Conv2D"}, {"inbound_nodes": [[["conv2d_1", 0, 0, {}]]], "name": "batch_normalization_1", "config": {"center": true, "moving_variance_initializer": {"config": {"dtype": "float32"}, "class_name": "Ones"}, "gamma_constraint": null, "beta_constraint": null, "epsilon": 0.001, "axis": [3], "trainable": true, "beta_regularizer": null, "scale": true, "gamma_regularizer": null, "dtype": "float32", "gamma_initializer": {"config": {"dtype": "float32"}, "class_name": "Ones"}, "name": "batch_normalization_1", "moving_mean_initializer": {"config": {"dtype": "float32"}, "class_name": "Zeros"}, "momentum": 0.99, "beta_initializer": {"config": {"dtype": "float32"}, "class_name": "Zeros"}}, "class_name": "BatchNormalization"}, {"inbound_nodes": [[["batch_normalization_1", 0, 0, {}]]], "name": "activation_1", "config": {"activation": "relu", "dtype": "float32", "name": "activation_1", "trainable": true}, "class_name": "Activation"}, {"inbound_nodes": [[["activation_1", 0, 0, {}]]], "name": "conv2d_2", "config": {"activation": "linear", "bias_initializer": {"config": {"dtype": "float32"}, "class_name": "Zeros"}, "padding": "same", "kernel_constraint": null, "use_bias": true, "trainable": true, "dtype": "float32", "bias_regularizer": null, "name": "conv2d_2", "dilation_rate": [1, 1], "filters": 16, "bias_constraint": null, "kernel_initializer": {"config": {"mode": "fan_in", "distribution": "truncated_normal", "dtype": "float32", "seed": null, "scale": 2.0}, "class_name": "VarianceScaling"}, "kernel_size": [3, 3], "data_format": "channels_last", "strides": [1, 1], "kernel_regularizer": {"config": {"l1": 0.0, "l2": 9.999999747378752e-05}, "class_name": "L1L2"}, "activity_regularizer": null}, "class_name": "Conv2D"}, {"inbound_nodes": [[["conv2d_2", 0, 0, {}]]], "name": "batch_normalization_2", "config": {"center": true, "moving_variance_initializer": {"config": {"dtype": "float32"}, "class_name": "Ones"}, "gamma_constraint": null, "beta_constraint": null, "epsilon": 0.001, "axis": [3], "trainable": true, "beta_regularizer": null, "scale": true, "gamma_regularizer": null, "dtype": "float32", "gamma_initializer": {"config": {"dtype": "float32"}, "class_name": "Ones"}, "name": "batch_normalization_2", "moving_mean_initializer": {"config": {"dtype": "float32"}, "class_name": "Zeros"}, "momentum": 0.99, "beta_initializer": {"config": {"dtype": "float32"}, "class_name": "Zeros"}}, "class_name": "BatchNormalization"}, {"inbound_nodes": [[["activation", 0, 0, {}], ["batch_normalization_2", 0, 0, {}]]], "name": "add", "config": {"dtype": "float32", "name": "add", "trainable": true}, "class_name": "Add"}, {"inbound_nodes": [[["add", 0, 0, {}]]], "name": "activation_2", "config": {"activation": "relu", "dtype": "float32", "name": "activation_2", "trainable": true}, "class_name": "Activation"}, {"inbound_nodes": [[["activation_2", 0, 0, {}]]], "name": "conv2d_3", "config": {"activation": "linear", "bias_initializer": {"config": {"dtype": "float32"}, "class_name": "Zeros"}, "padding": "same", "kernel_constraint": null, "use_bias": true, "trainable": true, "dtype": "float32", "bias_regularizer": null, "name": "conv2d_3", "dilation_rate": [1, 1], "filters": 16, "bias_constraint": null, "kernel_initializer": {"config": {"mode": "fan_in", "distribution": "truncated_normal", "dtype": "float32", "seed": null, "scale": 2.0}, "class_name": "VarianceScaling"}, "kernel_size": [3, 3], "data_format": "channels_last", "strides": [1, 1], "kernel_regularizer": {"config": {"l1": 0.0, "l2": 9.999999747378752e-05}, "class_name": "L1L2"}, "activity_regularizer": null}, "class_name": "Conv2D"}, {"inbound_nodes": [[["conv2d_3", 0, 0, {}]]], "name": "batch_normalization_3", "config": {"center": true, "moving_variance_initializer": {"config": {"dtype": "float32"}, "class_name": "Ones"}, "gamma_constraint": null, "beta_constraint": null, "epsilon": 0.001, "axis": [3], "trainable": true, "beta_regularizer": null, "scale": true, "gamma_regularizer": null, "dtype": "float32", "gamma_initializer": {"config": {"dtype": "float32"}, "class_name": "Ones"}, "name": "batch_normalization_3", "moving_mean_initializer": {"config": {"dtype": "float32"}, "class_name": "Zeros"}, "momentum": 0.99, "beta_initializer": {"config": {"dtype": "float32"}, "class_name": "Zeros"}}, "class_name": "BatchNormalization"}, {"inbound_nodes": [[["batch_normalization_3", 0, 0, {}]]], "name": "activation_3", "config": {"activation": "relu", "dtype": "float32", "name": "activation_3", "trainable": true}, "class_name": "Activation"}, {"inbound_nodes": [[["activation_3", 0, 0, {}]]], "name": "conv2d_4", "config": {"activation": "linear", "bias_initializer": {"config": {"dtype": "float32"}, "class_name": "Zeros"}, "padding": "same", "kernel_constraint": null, "use_bias": true, "trainable": true, "dtype": "float32", "bias_regularizer": null, "name": "conv2d_4", "dilation_rate": [1, 1], "filters": 16, "bias_constraint": null, "kernel_initializer": {"config": {"mode": "fan_in", "distribution": "truncated_normal", "dtype": "float32", "seed": null, "scale": 2.0}, "class_name": "VarianceScaling"}, "kernel_size": [3, 3], "data_format": "channels_last", "strides": [1, 1], "kernel_regularizer": {"config": {"l1": 0.0, "l2": 9.999999747378752e-05}, "class_name": "L1L2"}, "activity_regularizer": null}, "class_name": "Conv2D"}, {"inbound_nodes": [[["conv2d_4", 0, 0, {}]]], "name": "batch_normalization_4", "config": {"center": true, "moving_variance_initializer": {"config": {"dtype": "float32"}, "class_name": "Ones"}, "gamma_constraint": null, "beta_constraint": null, "epsilon": 0.001, "axis": [3], "trainable": true, "beta_regularizer": null, "scale": true, "gamma_regularizer": null, "dtype": "float32", "gamma_initializer": {"config": {"dtype": "float32"}, "class_name": "Ones"}, "name": "batch_normalization_4", "moving_mean_initializer": {"config": {"dtype": "float32"}, "class_name": "Zeros"}, "momentum": 0.99, "beta_initializer": {"config": {"dtype": "float32"}, "class_name": "Zeros"}}, "class_name": "BatchNormalization"}, {"inbound_nodes": [[["activation_2", 0, 0, {}], ["batch_normalization_4", 0, 0, {}]]], "name": "add_1", "config": {"dtype": "float32", "name": "add_1", "trainable": true}, "class_name": "Add"}, {"inbound_nodes": [[["add_1", 0, 0, {}]]], "name": "activation_4", "config": {"activation": "relu", "dtype": "float32", "name": "activation_4", "trainable": true}, "class_name": "Activation"}, {"inbound_nodes": [[["activation_4", 0, 0, {}]]], "name": "conv2d_5", "config": {"activation": "linear", "bias_initializer": {"config": {"dtype": "float32"}, "class_name": "Zeros"}, "padding": "same", "kernel_constraint": null, "use_bias": true, "trainable": true, "dtype": "float32", "bias_regularizer": null, "name": "conv2d_5", "dilation_rate": [1, 1], "filters": 16, "bias_constraint": null, "kernel_initializer": {"config": {"mode": "fan_in", "distribution": "truncated_normal", "dtype": "float32", "seed": null, "scale": 2.0}, "class_name": "VarianceScaling"}, "kernel_size": [3, 3], "data_format": "channels_last", "strides": [1, 1], "kernel_regularizer": {"config": {"l1": 0.0, "l2": 9.999999747378752e-05}, "class_name": "L1L2"}, "activity_regularizer": null}, "class_name": "Conv2D"}, {"inbound_nodes": [[["conv2d_5", 0, 0, {}]]], "name": "batch_normalization_5", "config": {"center": true, "moving_variance_initializer": {"config": {"dtype": "float32"}, "class_name": "Ones"}, "gamma_constraint": null, "beta_constraint": null, "epsilon": 0.001, "axis": [3], "trainable": true, "beta_regularizer": null, "scale": true, "gamma_regularizer": null, "dtype": "float32", "gamma_initializer": {"config": {"dtype": "float32"}, "class_name": "Ones"}, "name": "batch_normalization_5", "moving_mean_initializer": {"config": {"dtype": "float32"}, "class_name": "Zeros"}, "momentum": 0.99, "beta_initializer": {"config": {"dtype": "float32"}, "class_name": "Zeros"}}, "class_name": "BatchNormalization"}, {"inbound_nodes": [[["batch_normalization_5", 0, 0, {}]]], "name": "activation_5", "config": {"activation": "relu", "dtype": "float32", "name": "activation_5", "trainable": true}, "class_name": "Activation"}, {"inbound_nodes": [[["activation_5", 0, 0, {}]]], "name": "conv2d_6", "config": {"activation": "linear", "bias_initializer": {"config": {"dtype": "float32"}, "class_name": "Zeros"}, "padding": "same", "kernel_constraint": null, "use_bias": true, "trainable": true, "dtype": "float32", "bias_regularizer": null, "name": "conv2d_6", "dilation_rate": [1, 1], "filters": 16, "bias_constraint": null, "kernel_initializer": {"config": {"mode": "fan_in", "distribution": "truncated_normal", "dtype": "float32", "seed": null, "scale": 2.0}, "class_name": "VarianceScaling"}, "kernel_size": [3, 3], "data_format": "channels_last", "strides": [1, 1], "kernel_regularizer": {"config": {"l1": 0.0, "l2": 9.999999747378752e-05}, "class_name": "L1L2"}, "activity_regularizer": null}, "class_name": "Conv2D"}, {"inbound_nodes": [[["conv2d_6", 0, 0, {}]]], "name": "batch_normalization_6", "config": {"center": true, "moving_variance_initializer": {"config": {"dtype": "float32"}, "class_name": "Ones"}, "gamma_constraint": null, "beta_constraint": null, "epsilon": 0.001, "axis": [3], "trainable": true, "beta_regularizer": null, "scale": true, "gamma_regularizer": null, "dtype": "float32", "gamma_initializer": {"config": {"dtype": "float32"}, "class_name": "Ones"}, "name": "batch_normalization_6", "moving_mean_initializer": {"config": {"dtype": "float32"}, "class_name": "Zeros"}, "momentum": 0.99, "beta_initializer": {"config": {"dtype": "float32"}, "class_name": "Zeros"}}, "class_name": "BatchNormalization"}, {"inbound_nodes": [[["activation_4", 0, 0, {}], ["batch_normalization_6", 0, 0, {}]]], "name": "add_2", "config": {"dtype": "float32", "name": "add_2", "trainable": true}, "class_name": "Add"}, {"inbound_nodes": [[["add_2", 0, 0, {}]]], "name": "activation_6", "config": {"activation": "relu", "dtype": "float32", "name": "activation_6", "trainable": true}, "class_name": "Activation"}, {"inbound_nodes": [[["activation_6", 0, 0, {}]]], "name": "conv2d_7", "config": {"activation": "linear", "bias_initializer": {"config": {"dtype": "float32"}, "class_name": "Zeros"}, "padding": "same", "kernel_constraint": null, "use_bias": true, "trainable": true, "dtype": "float32", "bias_regularizer": null, "name": "conv2d_7", "dilation_rate": [1, 1], "filters": 32, "bias_constraint": null, "kernel_initializer": {"config": {"mode": "fan_in", "distribution": "truncated_normal", "dtype": "float32", "seed": null, "scale": 2.0}, "class_name": "VarianceScaling"}, "kernel_size": [3, 3], "data_format": "channels_last", "strides": [2, 2], "kernel_regularizer": {"config": {"l1": 0.0, "l2": 9.999999747378752e-05}, "class_name": "L1L2"}, "activity_regularizer": null}, "class_name": "Conv2D"}, {"inbound_nodes": [[["conv2d_7", 0, 0, {}]]], "name": "batch_normalization_7", "config": {"center": true, "moving_variance_initializer": {"config": {"dtype": "float32"}, "class_name": "Ones"}, "gamma_constraint": null, "beta_constraint": null, "epsilon": 0.001, "axis": [3], "trainable": true, "beta_regularizer": null, "scale": true, "gamma_regularizer": null, "dtype": "float32", "gamma_initializer": {"config": {"dtype": "float32"}, "class_name": "Ones"}, "name": "batch_normalization_7", "moving_mean_initializer": {"config": {"dtype": "float32"}, "class_name": "Zeros"}, "momentum": 0.99, "beta_initializer": {"config": {"dtype": "float32"}, "class_name": "Zeros"}}, "class_name": "BatchNormalization"}, {"inbound_nodes": [[["batch_normalization_7", 0, 0, {}]]], "name": "activation_7", "config": {"activation": "relu", "dtype": "float32", "name": "activation_7", "trainable": true}, "class_name": "Activation"}, {"inbound_nodes": [[["activation_7", 0, 0, {}]]], "name": "conv2d_8", "config": {"activation": "linear", "bias_initializer": {"config": {"dtype": "float32"}, "class_name": "Zeros"}, "padding": "same", "kernel_constraint": null, "use_bias": true, "trainable": true, "dtype": "float32", "bias_regularizer": null, "name": "conv2d_8", "dilation_rate": [1, 1], "filters": 32, "bias_constraint": null, "kernel_initializer": {"config": {"mode": "fan_in", "distribution": "truncated_normal", "dtype": "float32", "seed": null, "scale": 2.0}, "class_name": "VarianceScaling"}, "kernel_size": [3, 3], "data_format": "channels_last", "strides": [1, 1], "kernel_regularizer": {"config": {"l1": 0.0, "l2": 9.999999747378752e-05}, "class_name": "L1L2"}, "activity_regularizer": null}, "class_name": "Conv2D"}, {"inbound_nodes": [[["activation_6", 0, 0, {}]]], "name": "conv2d_9", "config": {"activation": "linear", "bias_initializer": {"config": {"dtype": "float32"}, "class_name": "Zeros"}, "padding": "same", "kernel_constraint": null, "use_bias": true, "trainable": true, "dtype": "float32", "bias_regularizer": null, "name": "conv2d_9", "dilation_rate": [1, 1], "filters": 32, "bias_constraint": null, "kernel_initializer": {"config": {"mode": "fan_in", "distribution": "truncated_normal", "dtype": "float32", "seed": null, "scale": 2.0}, "class_name": "VarianceScaling"}, "kernel_size": [1, 1], "data_format": "channels_last", "strides": [2, 2], "kernel_regularizer": {"config": {"l1": 0.0, "l2": 9.999999747378752e-05}, "class_name": "L1L2"}, "activity_regularizer": null}, "class_name": "Conv2D"}, {"inbound_nodes": [[["conv2d_8", 0, 0, {}]]], "name": "batch_normalization_8", "config": {"center": true, "moving_variance_initializer": {"config": {"dtype": "float32"}, "class_name": "Ones"}, "gamma_constraint": null, "beta_constraint": null, "epsilon": 0.001, "axis": [3], "trainable": true, "beta_regularizer": null, "scale": true, "gamma_regularizer": null, "dtype": "float32", "gamma_initializer": {"config": {"dtype": "float32"}, "class_name": "Ones"}, "name": "batch_normalization_8", "moving_mean_initializer": {"config": {"dtype": "float32"}, "class_name": "Zeros"}, "momentum": 0.99, "beta_initializer": {"config": {"dtype": "float32"}, "class_name": "Zeros"}}, "class_name": "BatchNormalization"}, {"inbound_nodes": [[["conv2d_9", 0, 0, {}], ["batch_normalization_8", 0, 0, {}]]], "name": "add_3", "config": {"dtype": "float32", "name": "add_3", "trainable": true}, "class_name": "Add"}, {"inbound_nodes": [[["add_3", 0, 0, {}]]], "name": "activation_8", "config": {"activation": "relu", "dtype": "float32", "name": "activation_8", "trainable": true}, "class_name": "Activation"}, {"inbound_nodes": [[["activation_8", 0, 0, {}]]], "name": "conv2d_10", "config": {"activation": "linear", "bias_initializer": {"config": {"dtype": "float32"}, "class_name": "Zeros"}, "padding": "same", "kernel_constraint": null, "use_bias": true, "trainable": true, "dtype": "float32", "bias_regularizer": null, "name": "conv2d_10", "dilation_rate": [1, 1], "filters": 32, "bias_constraint": null, "kernel_initializer": {"config": {"mode": "fan_in", "distribution": "truncated_normal", "dtype": "float32", "seed": null, "scale": 2.0}, "class_name": "VarianceScaling"}, "kernel_size": [3, 3], "data_format": "channels_last", "strides": [1, 1], "kernel_regularizer": {"config": {"l1": 0.0, "l2": 9.999999747378752e-05}, "class_name": "L1L2"}, "activity_regularizer": null}, "class_name": "Conv2D"}, {"inbound_nodes": [[["conv2d_10", 0, 0, {}]]], "name": "batch_normalization_9", "config": {"center": true, "moving_variance_initializer": {"config": {"dtype": "float32"}, "class_name": "Ones"}, "gamma_constraint": null, "beta_constraint": null, "epsilon": 0.001, "axis": [3], "trainable": true, "beta_regularizer": null, "scale": true, "gamma_regularizer": null, "dtype": "float32", "gamma_initializer": {"config": {"dtype": "float32"}, "class_name": "Ones"}, "name": "batch_normalization_9", "moving_mean_initializer": {"config": {"dtype": "float32"}, "class_name": "Zeros"}, "momentum": 0.99, "beta_initializer": {"config": {"dtype": "float32"}, "class_name": "Zeros"}}, "class_name": "BatchNormalization"}, {"inbound_nodes": [[["batch_normalization_9", 0, 0, {}]]], "name": "activation_9", "config": {"activation": "relu", "dtype": "float32", "name": "activation_9", "trainable": true}, "class_name": "Activation"}, {"inbound_nodes": [[["activation_9", 0, 0, {}]]], "name": "conv2d_11", "config": {"activation": "linear", "bias_initializer": {"config": {"dtype": "float32"}, "class_name": "Zeros"}, "padding": "same", "kernel_constraint": null, "use_bias": true, "trainable": true, "dtype": "float32", "bias_regularizer": null, "name": "conv2d_11", "dilation_rate": [1, 1], "filters": 32, "bias_constraint": null, "kernel_initializer": {"config": {"mode": "fan_in", "distribution": "truncated_normal", "dtype": "float32", "seed": null, "scale": 2.0}, "class_name": "VarianceScaling"}, "kernel_size": [3, 3], "data_format": "channels_last", "strides": [1, 1], "kernel_regularizer": {"config": {"l1": 0.0, "l2": 9.999999747378752e-05}, "class_name": "L1L2"}, "activity_regularizer": null}, "class_name": "Conv2D"}, {"inbound_nodes": [[["conv2d_11", 0, 0, {}]]], "name": "batch_normalization_10", "config": {"center": true, "moving_variance_initializer": {"config": {"dtype": "float32"}, "class_name": "Ones"}, "gamma_constraint": null, "beta_constraint": null, "epsilon": 0.001, "axis": [3], "trainable": true, "beta_regularizer": null, "scale": true, "gamma_regularizer": null, "dtype": "float32", "gamma_initializer": {"config": {"dtype": "float32"}, "class_name": "Ones"}, "name": "batch_normalization_10", "moving_mean_initializer": {"config": {"dtype": "float32"}, "class_name": "Zeros"}, "momentum": 0.99, "beta_initializer": {"config": {"dtype": "float32"}, "class_name": "Zeros"}}, "class_name": "BatchNormalization"}, {"inbound_nodes": [[["activation_8", 0, 0, {}], ["batch_normalization_10", 0, 0, {}]]], "name": "add_4", "config": {"dtype": "float32", "name": "add_4", "trainable": true}, "class_name": "Add"}, {"inbound_nodes": [[["add_4", 0, 0, {}]]], "name": "activation_10", "config": {"activation": "relu", "dtype": "float32", "name": "activation_10", "trainable": true}, "class_name": "Activation"}, {"inbound_nodes": [[["activation_10", 0, 0, {}]]], "name": "conv2d_12", "config": {"activation": "linear", "bias_initializer": {"config": {"dtype": "float32"}, "class_name": "Zeros"}, "padding": "same", "kernel_constraint": null, "use_bias": true, "trainable": true, "dtype": "float32", "bias_regularizer": null, "name": "conv2d_12", "dilation_rate": [1, 1], "filters": 32, "bias_constraint": null, "kernel_initializer": {"config": {"mode": "fan_in", "distribution": "truncated_normal", "dtype": "float32", "seed": null, "scale": 2.0}, "class_name": "VarianceScaling"}, "kernel_size": [3, 3], "data_format": "channels_last", "strides": [1, 1], "kernel_regularizer": {"config": {"l1": 0.0, "l2": 9.999999747378752e-05}, "class_name": "L1L2"}, "activity_regularizer": null}, "class_name": "Conv2D"}, {"inbound_nodes": [[["conv2d_12", 0, 0, {}]]], "name": "batch_normalization_11", "config": {"center": true, "moving_variance_initializer": {"config": {"dtype": "float32"}, "class_name": "Ones"}, "gamma_constraint": null, "beta_constraint": null, "epsilon": 0.001, "axis": [3], "trainable": true, "beta_regularizer": null, "scale": true, "gamma_regularizer": null, "dtype": "float32", "gamma_initializer": {"config": {"dtype": "float32"}, "class_name": "Ones"}, "name": "batch_normalization_11", "moving_mean_initializer": {"config": {"dtype": "float32"}, "class_name": "Zeros"}, "momentum": 0.99, "beta_initializer": {"config": {"dtype": "float32"}, "class_name": "Zeros"}}, "class_name": "BatchNormalization"}, {"inbound_nodes": [[["batch_normalization_11", 0, 0, {}]]], "name": "activation_11", "config": {"activation": "relu", "dtype": "float32", "name": "activation_11", "trainable": true}, "class_name": "Activation"}, {"inbound_nodes": [[["activation_11", 0, 0, {}]]], "name": "conv2d_13", "config": {"activation": "linear", "bias_initializer": {"config": {"dtype": "float32"}, "class_name": "Zeros"}, "padding": "same", "kernel_constraint": null, "use_bias": true, "trainable": true, "dtype": "float32", "bias_regularizer": null, "name": "conv2d_13", "dilation_rate": [1, 1], "filters": 32, "bias_constraint": null, "kernel_initializer": {"config": {"mode": "fan_in", "distribution": "truncated_normal", "dtype": "float32", "seed": null, "scale": 2.0}, "class_name": "VarianceScaling"}, "kernel_size": [3, 3], "data_format": "channels_last", "strides": [1, 1], "kernel_regularizer": {"config": {"l1": 0.0, "l2": 9.999999747378752e-05}, "class_name": "L1L2"}, "activity_regularizer": null}, "class_name": "Conv2D"}, {"inbound_nodes": [[["conv2d_13", 0, 0, {}]]], "name": "batch_normalization_12", "config": {"center": true, "moving_variance_initializer": {"config": {"dtype": "float32"}, "class_name": "Ones"}, "gamma_constraint": null, "beta_constraint": null, "epsilon": 0.001, "axis": [3], "trainable": true, "beta_regularizer": null, "scale": true, "gamma_regularizer": null, "dtype": "float32", "gamma_initializer": {"config": {"dtype": "float32"}, "class_name": "Ones"}, "name": "batch_normalization_12", "moving_mean_initializer": {"config": {"dtype": "float32"}, "class_name": "Zeros"}, "momentum": 0.99, "beta_initializer": {"config": {"dtype": "float32"}, "class_name": "Zeros"}}, "class_name": "BatchNormalization"}, {"inbound_nodes": [[["activation_10", 0, 0, {}], ["batch_normalization_12", 0, 0, {}]]], "name": "add_5", "config": {"dtype": "float32", "name": "add_5", "trainable": true}, "class_name": "Add"}, {"inbound_nodes": [[["add_5", 0, 0, {}]]], "name": "activation_12", "config": {"activation": "relu", "dtype": "float32", "name": "activation_12", "trainable": true}, "class_name": "Activation"}, {"inbound_nodes": [[["activation_12", 0, 0, {}]]], "name": "conv2d_14", "config": {"activation": "linear", "bias_initializer": {"config": {"dtype": "float32"}, "class_name": "Zeros"}, "padding": "same", "kernel_constraint": null, "use_bias": true, "trainable": true, "dtype": "float32", "bias_regularizer": null, "name": "conv2d_14", "dilation_rate": [1, 1], "filters": 64, "bias_constraint": null, "kernel_initializer": {"config": {"mode": "fan_in", "distribution": "truncated_normal", "dtype": "float32", "seed": null, "scale": 2.0}, "class_name": "VarianceScaling"}, "kernel_size": [3, 3], "data_format": "channels_last", "strides": [2, 2], "kernel_regularizer": {"config": {"l1": 0.0, "l2": 9.999999747378752e-05}, "class_name": "L1L2"}, "activity_regularizer": null}, "class_name": "Conv2D"}, {"inbound_nodes": [[["conv2d_14", 0, 0, {}]]], "name": "batch_normalization_13", "config": {"center": true, "moving_variance_initializer": {"config": {"dtype": "float32"}, "class_name": "Ones"}, "gamma_constraint": null, "beta_constraint": null, "epsilon": 0.001, "axis": [3], "trainable": true, "beta_regularizer": null, "scale": true, "gamma_regularizer": null, "dtype": "float32", "gamma_initializer": {"config": {"dtype": "float32"}, "class_name": "Ones"}, "name": "batch_normalization_13", "moving_mean_initializer": {"config": {"dtype": "float32"}, "class_name": "Zeros"}, "momentum": 0.99, "beta_initializer": {"config": {"dtype": "float32"}, "class_name": "Zeros"}}, "class_name": "BatchNormalization"}, {"inbound_nodes": [[["batch_normalization_13", 0, 0, {}]]], "name": "activation_13", "config": {"activation": "relu", "dtype": "float32", "name": "activation_13", "trainable": true}, "class_name": "Activation"}, {"inbound_nodes": [[["activation_13", 0, 0, {}]]], "name": "conv2d_15", "config": {"activation": "linear", "bias_initializer": {"config": {"dtype": "float32"}, "class_name": "Zeros"}, "padding": "same", "kernel_constraint": null, "use_bias": true, "trainable": true, "dtype": "float32", "bias_regularizer": null, "name": "conv2d_15", "dilation_rate": [1, 1], "filters": 64, "bias_constraint": null, "kernel_initializer": {"config": {"mode": "fan_in", "distribution": "truncated_normal", "dtype": "float32", "seed": null, "scale": 2.0}, "class_name": "VarianceScaling"}, "kernel_size": [3, 3], "data_format": "channels_last", "strides": [1, 1], "kernel_regularizer": {"config": {"l1": 0.0, "l2": 9.999999747378752e-05}, "class_name": "L1L2"}, "activity_regularizer": null}, "class_name": "Conv2D"}, {"inbound_nodes": [[["activation_12", 0, 0, {}]]], "name": "conv2d_16", "config": {"activation": "linear", "bias_initializer": {"config": {"dtype": "float32"}, "class_name": "Zeros"}, "padding": "same", "kernel_constraint": null, "use_bias": true, "trainable": true, "dtype": "float32", "bias_regularizer": null, "name": "conv2d_16", "dilation_rate": [1, 1], "filters": 64, "bias_constraint": null, "kernel_initializer": {"config": {"mode": "fan_in", "distribution": "truncated_normal", "dtype": "float32", "seed": null, "scale": 2.0}, "class_name": "VarianceScaling"}, "kernel_size": [1, 1], "data_format": "channels_last", "strides": [2, 2], "kernel_regularizer": {"config": {"l1": 0.0, "l2": 9.999999747378752e-05}, "class_name": "L1L2"}, "activity_regularizer": null}, "class_name": "Conv2D"}, {"inbound_nodes": [[["conv2d_15", 0, 0, {}]]], "name": "batch_normalization_14", "config": {"center": true, "moving_variance_initializer": {"config": {"dtype": "float32"}, "class_name": "Ones"}, "gamma_constraint": null, "beta_constraint": null, "epsilon": 0.001, "axis": [3], "trainable": true, "beta_regularizer": null, "scale": true, "gamma_regularizer": null, "dtype": "float32", "gamma_initializer": {"config": {"dtype": "float32"}, "class_name": "Ones"}, "name": "batch_normalization_14", "moving_mean_initializer": {"config": {"dtype": "float32"}, "class_name": "Zeros"}, "momentum": 0.99, "beta_initializer": {"config": {"dtype": "float32"}, "class_name": "Zeros"}}, "class_name": "BatchNormalization"}, {"inbound_nodes": [[["conv2d_16", 0, 0, {}], ["batch_normalization_14", 0, 0, {}]]], "name": "add_6", "config": {"dtype": "float32", "name": "add_6", "trainable": true}, "class_name": "Add"}, {"inbound_nodes": [[["add_6", 0, 0, {}]]], "name": "activation_14", "config": {"activation": "relu", "dtype": "float32", "name": "activation_14", "trainable": true}, "class_name": "Activation"}, {"inbound_nodes": [[["activation_14", 0, 0, {}]]], "name": "conv2d_17", "config": {"activation": "linear", "bias_initializer": {"config": {"dtype": "float32"}, "class_name": "Zeros"}, "padding": "same", "kernel_constraint": null, "use_bias": true, "trainable": true, "dtype": "float32", "bias_regularizer": null, "name": "conv2d_17", "dilation_rate": [1, 1], "filters": 64, "bias_constraint": null, "kernel_initializer": {"config": {"mode": "fan_in", "distribution": "truncated_normal", "dtype": "float32", "seed": null, "scale": 2.0}, "class_name": "VarianceScaling"}, "kernel_size": [3, 3], "data_format": "channels_last", "strides": [1, 1], "kernel_regularizer": {"config": {"l1": 0.0, "l2": 9.999999747378752e-05}, "class_name": "L1L2"}, "activity_regularizer": null}, "class_name": "Conv2D"}, {"inbound_nodes": [[["conv2d_17", 0, 0, {}]]], "name": "batch_normalization_15", "config": {"center": true, "moving_variance_initializer": {"config": {"dtype": "float32"}, "class_name": "Ones"}, "gamma_constraint": null, "beta_constraint": null, "epsilon": 0.001, "axis": [3], "trainable": true, "beta_regularizer": null, "scale": true, "gamma_regularizer": null, "dtype": "float32", "gamma_initializer": {"config": {"dtype": "float32"}, "class_name": "Ones"}, "name": "batch_normalization_15", "moving_mean_initializer": {"config": {"dtype": "float32"}, "class_name": "Zeros"}, "momentum": 0.99, "beta_initializer": {"config": {"dtype": "float32"}, "class_name": "Zeros"}}, "class_name": "BatchNormalization"}, {"inbound_nodes": [[["batch_normalization_15", 0, 0, {}]]], "name": "activation_15", "config": {"activation": "relu", "dtype": "float32", "name": "activation_15", "trainable": true}, "class_name": "Activation"}, {"inbound_nodes": [[["activation_15", 0, 0, {}]]], "name": "conv2d_18", "config": {"activation": "linear", "bias_initializer": {"config": {"dtype": "float32"}, "class_name": "Zeros"}, "padding": "same", "kernel_constraint": null, "use_bias": true, "trainable": true, "dtype": "float32", "bias_regularizer": null, "name": "conv2d_18", "dilation_rate": [1, 1], "filters": 64, "bias_constraint": null, "kernel_initializer": {"config": {"mode": "fan_in", "distribution": "truncated_normal", "dtype": "float32", "seed": null, "scale": 2.0}, "class_name": "VarianceScaling"}, "kernel_size": [3, 3], "data_format": "channels_last", "strides": [1, 1], "kernel_regularizer": {"config": {"l1": 0.0, "l2": 9.999999747378752e-05}, "class_name": "L1L2"}, "activity_regularizer": null}, "class_name": "Conv2D"}, {"inbound_nodes": [[["conv2d_18", 0, 0, {}]]], "name": "batch_normalization_16", "config": {"center": true, "moving_variance_initializer": {"config": {"dtype": "float32"}, "class_name": "Ones"}, "gamma_constraint": null, "beta_constraint": null, "epsilon": 0.001, "axis": [3], "trainable": true, "beta_regularizer": null, "scale": true, "gamma_regularizer": null, "dtype": "float32", "gamma_initializer": {"config": {"dtype": "float32"}, "class_name": "Ones"}, "name": "batch_normalization_16", "moving_mean_initializer": {"config": {"dtype": "float32"}, "class_name": "Zeros"}, "momentum": 0.99, "beta_initializer": {"config": {"dtype": "float32"}, "class_name": "Zeros"}}, "class_name": "BatchNormalization"}, {"inbound_nodes": [[["activation_14", 0, 0, {}], ["batch_normalization_16", 0, 0, {}]]], "name": "add_7", "config": {"dtype": "float32", "name": "add_7", "trainable": true}, "class_name": "Add"}, {"inbound_nodes": [[["add_7", 0, 0, {}]]], "name": "activation_16", "config": {"activation": "relu", "dtype": "float32", "name": "activation_16", "trainable": true}, "class_name": "Activation"}, {"inbound_nodes": [[["activation_16", 0, 0, {}]]], "name": "conv2d_19", "config": {"activation": "linear", "bias_initializer": {"config": {"dtype": "float32"}, "class_name": "Zeros"}, "padding": "same", "kernel_constraint": null, "use_bias": true, "trainable": true, "dtype": "float32", "bias_regularizer": null, "name": "conv2d_19", "dilation_rate": [1, 1], "filters": 64, "bias_constraint": null, "kernel_initializer": {"config": {"mode": "fan_in", "distribution": "truncated_normal", "dtype": "float32", "seed": null, "scale": 2.0}, "class_name": "VarianceScaling"}, "kernel_size": [3, 3], "data_format": "channels_last", "strides": [1, 1], "kernel_regularizer": {"config": {"l1": 0.0, "l2": 9.999999747378752e-05}, "class_name": "L1L2"}, "activity_regularizer": null}, "class_name": "Conv2D"}, {"inbound_nodes": [[["conv2d_19", 0, 0, {}]]], "name": "batch_normalization_17", "config": {"center": true, "moving_variance_initializer": {"config": {"dtype": "float32"}, "class_name": "Ones"}, "gamma_constraint": null, "beta_constraint": null, "epsilon": 0.001, "axis": [3], "trainable": true, "beta_regularizer": null, "scale": true, "gamma_regularizer": null, "dtype": "float32", "gamma_initializer": {"config": {"dtype": "float32"}, "class_name": "Ones"}, "name": "batch_normalization_17", "moving_mean_initializer": {"config": {"dtype": "float32"}, "class_name": "Zeros"}, "momentum": 0.99, "beta_initializer": {"config": {"dtype": "float32"}, "class_name": "Zeros"}}, "class_name": "BatchNormalization"}, {"inbound_nodes": [[["batch_normalization_17", 0, 0, {}]]], "name": "activation_17", "config": {"activation": "relu", "dtype": "float32", "name": "activation_17", "trainable": true}, "class_name": "Activation"}, {"inbound_nodes": [[["activation_17", 0, 0, {}]]], "name": "conv2d_20", "config": {"activation": "linear", "bias_initializer": {"config": {"dtype": "float32"}, "class_name": "Zeros"}, "padding": "same", "kernel_constraint": null, "use_bias": true, "trainable": true, "dtype": "float32", "bias_regularizer": null, "name": "conv2d_20", "dilation_rate": [1, 1], "filters": 64, "bias_constraint": null, "kernel_initializer": {"config": {"mode": "fan_in", "distribution": "truncated_normal", "dtype": "float32", "seed": null, "scale": 2.0}, "class_name": "VarianceScaling"}, "kernel_size": [3, 3], "data_format": "channels_last", "strides": [1, 1], "kernel_regularizer": {"config": {"l1": 0.0, "l2": 9.999999747378752e-05}, "class_name": "L1L2"}, "activity_regularizer": null}, "class_name": "Conv2D"}, {"inbound_nodes": [[["conv2d_20", 0, 0, {}]]], "name": "batch_normalization_18", "config": {"center": true, "moving_variance_initializer": {"config": {"dtype": "float32"}, "class_name": "Ones"}, "gamma_constraint": null, "beta_constraint": null, "epsilon": 0.001, "axis": [3], "trainable": true, "beta_regularizer": null, "scale": true, "gamma_regularizer": null, "dtype": "float32", "gamma_initializer": {"config": {"dtype": "float32"}, "class_name": "Ones"}, "name": "batch_normalization_18", "moving_mean_initializer": {"config": {"dtype": "float32"}, "class_name": "Zeros"}, "momentum": 0.99, "beta_initializer": {"config": {"dtype": "float32"}, "class_name": "Zeros"}}, "class_name": "BatchNormalization"}, {"inbound_nodes": [[["activation_16", 0, 0, {}], ["batch_normalization_18", 0, 0, {}]]], "name": "add_8", "config": {"dtype": "float32", "name": "add_8", "trainable": true}, "class_name": "Add"}, {"inbound_nodes": [[["add_8", 0, 0, {}]]], "name": "activation_18", "config": {"activation": "relu", "dtype": "float32", "name": "activation_18", "trainable": true}, "class_name": "Activation"}, {"inbound_nodes": [[["activation_18", 0, 0, {}]]], "name": "average_pooling2d", "config": {"dtype": "float32", "name": "average_pooling2d", "padding": "valid", "pool_size": [2, 2], "data_format": "channels_last", "trainable": true, "strides": [2, 2]}, "class_name": "AveragePooling2D"}, {"inbound_nodes": [[["average_pooling2d", 0, 0, {}]]], "name": "flatten", "config": {"dtype": "float32", "name": "flatten", "trainable": true, "data_format": "channels_last"}, "class_name": "Flatten"}, {"inbound_nodes": [[["flatten", 0, 0, {}]]], "name": "dense", "config": {"activation": "softmax", "bias_initializer": {"config": {"dtype": "float32"}, "class_name": "Zeros"}, "kernel_constraint": null, "use_bias": true, "trainable": true, "bias_regularizer": null, "dtype": "float32", "name": "dense", "bias_constraint": null, "kernel_initializer": {"config": {"mode": "fan_in", "distribution": "truncated_normal", "dtype": "float32", "seed": null, "scale": 2.0}, "class_name": "VarianceScaling"}, "units": 2, "kernel_regularizer": null, "activity_regularizer": null}, "class_name": "Dense"}], "name": "model", "output_layers": [["dense", 0, 0]], "input_layers": [["input_1", 0, 0]]}, "keras_version": "2.1.6-tf", "class_name": "Model", "backend": "tensorflow"}