{"backend": "tensorflow", "config": {"input_layers": [["input_1", 0, 0]], "layers": [{"config": {"sparse": false, "name": "input_1", "batch_input_shape": [null, 64, 64, 3], "dtype": "float32"}, "name": "input_1", "inbound_nodes": [], "class_name": "InputLayer"}, {"config": {"trainable": true, "kernel_constraint": null, "name": "conv2d", "bias_regularizer": null, "use_bias": true, "activation": "linear", "kernel_initializer": {"config": {"mode": "fan_in", "seed": null, "distribution": "truncated_normal", "dtype": "float32", "scale": 2.0}, "class_name": "VarianceScaling"}, "filters": 16, "bias_initializer": {"config": {"dtype": "float32"}, "class_name": "Zeros"}, "kernel_size": [3, 3], "kernel_regularizer": {"config": {"l2": 9.999999747378752e-05, "l1": 0.0}, "class_name": "L1L2"}, "data_format": "channels_last", "bias_constraint": null, "dilation_rate": [1, 1], "dtype": "float32", "strides": [1, 1], "padding": "same", "activity_regularizer": null}, "name": "conv2d", "inbound_nodes": [[["input_1", 0, 0, {}]]], "class_name": "Conv2D"}, {"config": {"gamma_regularizer": null, "trainable": true, "dtype": "float32", "gamma_constraint": null, "axis": [3], "name": "batch_normalization", "momentum": 0.99, "epsilon": 0.001, "moving_variance_initializer": {"config": {"dtype": "float32"}, "class_name": "Ones"}, "scale": true, "moving_mean_initializer": {"config": {"dtype": "float32"}, "class_name": "Zeros"}, "beta_initializer": {"config": {"dtype": "float32"}, "class_name": "Zeros"}, "beta_regularizer": null, "beta_constraint": null, "center": true, "gamma_initializer": {"config": {"dtype": "float32"}, "class_name": "Ones"}}, "name": "batch_normalization", "inbound_nodes": [[["conv2d", 0, 0, {}]]], "class_name": "BatchNormalization"}, {"config": {"trainable": true, "dtype": "float32", "name": "activation", "activation": "relu"}, "name": "activation", "inbound_nodes": [[["batch_normalization", 0, 0, {}]]], "class_name": "Activation"}, {"config": {"trainable": true, "kernel_constraint": null, "name": "conv2d_1", "bias_regularizer": null, "use_bias": true, "activation": "linear", "kernel_initializer": {"config": {"mode": "fan_in", "seed": null, "distribution": "truncated_normal", "dtype": "float32", "scale": 2.0}, "class_name": "VarianceScaling"}, "filters": 16, "bias_initializer": {"config": {"dtype": "float32"}, "class_name": "Zeros"}, "kernel_size": [3, 3], "kernel_regularizer": {"config": {"l2": 9.999999747378752e-05, "l1": 0.0}, "class_name": "L1L2"}, "data_format": "channels_last", "bias_constraint": null, "dilation_rate": [1, 1], "dtype": "float32", "strides": [1, 1], "padding": "same", "activity_regularizer": null}, "name": "conv2d_1", "inbound_nodes": [[["activation", 0, 0, {}]]], "class_name": "Conv2D"}, {"config": {"gamma_regularizer": null, "trainable": true, "dtype": "float32", "gamma_constraint": null, "axis": [3], "name": "batch_normalization_1", "momentum": 0.99, "epsilon": 0.001, "moving_variance_initializer": {"config": {"dtype": "float32"}, "class_name": "Ones"}, "scale": true, "moving_mean_initializer": {"config": {"dtype": "float32"}, "class_name": "Zeros"}, "beta_initializer": {"config": {"dtype": "float32"}, "class_name": "Zeros"}, "beta_regularizer": null, "beta_constraint": null, "center": true, "gamma_initializer": {"config": {"dtype": "float32"}, "class_name": "Ones"}}, "name": "batch_normalization_1", "inbound_nodes": [[["conv2d_1", 0, 0, {}]]], "class_name": "BatchNormalization"}, {"config": {"trainable": true, "dtype": "float32", "name": "activation_1", "activation": "relu"}, "name": "activation_1", "inbound_nodes": [[["batch_normalization_1", 0, 0, {}]]], "class_name": "Activation"}, {"config": {"trainable": true, "kernel_constraint": null, "name": "conv2d_2", "bias_regularizer": null, "use_bias": true, "activation": "linear", "kernel_initializer": {"config": {"mode": "fan_in", "seed": null, "distribution": "truncated_normal", "dtype": "float32", "scale": 2.0}, "class_name": "VarianceScaling"}, "filters": 16, "bias_initializer": {"config": {"dtype": "float32"}, "class_name": "Zeros"}, "kernel_size": [3, 3], "kernel_regularizer": {"config": {"l2": 9.999999747378752e-05, "l1": 0.0}, "class_name": "L1L2"}, "data_format": "channels_last", "bias_constraint": null, "dilation_rate": [1, 1], "dtype": "float32", "strides": [1, 1], "padding": "same", "activity_regularizer": null}, "name": "conv2d_2", "inbound_nodes": [[["activation_1", 0, 0, {}]]], "class_name": "Conv2D"}, {"config": {"gamma_regularizer": null, "trainable": true, "dtype": "float32", "gamma_constraint": null, "axis": [3], "name": "batch_normalization_2", "momentum": 0.99, "epsilon": 0.001, "moving_variance_initializer": {"config": {"dtype": "float32"}, "class_name": "Ones"}, "scale": true, "moving_mean_initializer": {"config": {"dtype": "float32"}, "class_name": "Zeros"}, "beta_initializer": {"config": {"dtype": "float32"}, "class_name": "Zeros"}, "beta_regularizer": null, "beta_constraint": null, "center": true, "gamma_initializer": {"config": {"dtype": "float32"}, "class_name": "Ones"}}, "name": "batch_normalization_2", "inbound_nodes": [[["conv2d_2", 0, 0, {}]]], "class_name": "BatchNormalization"}, {"config": {"trainable": true, "dtype": "float32", "name": "add"}, "name": "add", "inbound_nodes": [[["activation", 0, 0, {}], ["batch_normalization_2", 0, 0, {}]]], "class_name": "Add"}, {"config": {"trainable": true, "dtype": "float32", "name": "activation_2", "activation": "relu"}, "name": "activation_2", "inbound_nodes": [[["add", 0, 0, {}]]], "class_name": "Activation"}, {"config": {"trainable": true, "kernel_constraint": null, "name": "conv2d_3", "bias_regularizer": null, "use_bias": true, "activation": "linear", "kernel_initializer": {"config": {"mode": "fan_in", "seed": null, "distribution": "truncated_normal", "dtype": "float32", "scale": 2.0}, "class_name": "VarianceScaling"}, "filters": 16, "bias_initializer": {"config": {"dtype": "float32"}, "class_name": "Zeros"}, "kernel_size": [3, 3], "kernel_regularizer": {"config": {"l2": 9.999999747378752e-05, "l1": 0.0}, "class_name": "L1L2"}, "data_format": "channels_last", "bias_constraint": null, "dilation_rate": [1, 1], "dtype": "float32", "strides": [1, 1], "padding": "same", "activity_regularizer": null}, "name": "conv2d_3", "inbound_nodes": [[["activation_2", 0, 0, {}]]], "class_name": "Conv2D"}, {"config": {"gamma_regularizer": null, "trainable": true, "dtype": "float32", "gamma_constraint": null, "axis": [3], "name": "batch_normalization_3", "momentum": 0.99, "epsilon": 0.001, "moving_variance_initializer": {"config": {"dtype": "float32"}, "class_name": "Ones"}, "scale": true, "moving_mean_initializer": {"config": {"dtype": "float32"}, "class_name": "Zeros"}, "beta_initializer": {"config": {"dtype": "float32"}, "class_name": "Zeros"}, "beta_regularizer": null, "beta_constraint": null, "center": true, "gamma_initializer": {"config": {"dtype": "float32"}, "class_name": "Ones"}}, "name": "batch_normalization_3", "inbound_nodes": [[["conv2d_3", 0, 0, {}]]], "class_name": "BatchNormalization"}, {"config": {"trainable": true, "dtype": "float32", "name": "activation_3", "activation": "relu"}, "name": "activation_3", "inbound_nodes": [[["batch_normalization_3", 0, 0, {}]]], "class_name": "Activation"}, {"config": {"trainable": true, "kernel_constraint": null, "name": "conv2d_4", "bias_regularizer": null, "use_bias": true, "activation": "linear", "kernel_initializer": {"config": {"mode": "fan_in", "seed": null, "distribution": "truncated_normal", "dtype": "float32", "scale": 2.0}, "class_name": "VarianceScaling"}, "filters": 16, "bias_initializer": {"config": {"dtype": "float32"}, "class_name": "Zeros"}, "kernel_size": [3, 3], "kernel_regularizer": {"config": {"l2": 9.999999747378752e-05, "l1": 0.0}, "class_name": "L1L2"}, "data_format": "channels_last", "bias_constraint": null, "dilation_rate": [1, 1], "dtype": "float32", "strides": [1, 1], "padding": "same", "activity_regularizer": null}, "name": "conv2d_4", "inbound_nodes": [[["activation_3", 0, 0, {}]]], "class_name": "Conv2D"}, {"config": {"gamma_regularizer": null, "trainable": true, "dtype": "float32", "gamma_constraint": null, "axis": [3], "name": "batch_normalization_4", "momentum": 0.99, "epsilon": 0.001, "moving_variance_initializer": {"config": {"dtype": "float32"}, "class_name": "Ones"}, "scale": true, "moving_mean_initializer": {"config": {"dtype": "float32"}, "class_name": "Zeros"}, "beta_initializer": {"config": {"dtype": "float32"}, "class_name": "Zeros"}, "beta_regularizer": null, "beta_constraint": null, "center": true, "gamma_initializer": {"config": {"dtype": "float32"}, "class_name": "Ones"}}, "name": "batch_normalization_4", "inbound_nodes": [[["conv2d_4", 0, 0, {}]]], "class_name": "BatchNormalization"}, {"config": {"trainable": true, "dtype": "float32", "name": "add_1"}, "name": "add_1", "inbound_nodes": [[["activation_2", 0, 0, {}], ["batch_normalization_4", 0, 0, {}]]], "class_name": "Add"}, {"config": {"trainable": true, "dtype": "float32", "name": "activation_4", "activation": "relu"}, "name": "activation_4", "inbound_nodes": [[["add_1", 0, 0, {}]]], "class_name": "Activation"}, {"config": {"trainable": true, "kernel_constraint": null, "name": "conv2d_5", "bias_regularizer": null, "use_bias": true, "activation": "linear", "kernel_initializer": {"config": {"mode": "fan_in", "seed": null, "distribution": "truncated_normal", "dtype": "float32", "scale": 2.0}, "class_name": "VarianceScaling"}, "filters": 16, "bias_initializer": {"config": {"dtype": "float32"}, "class_name": "Zeros"}, "kernel_size": [3, 3], "kernel_regularizer": {"config": {"l2": 9.999999747378752e-05, "l1": 0.0}, "class_name": "L1L2"}, "data_format": "channels_last", "bias_constraint": null, "dilation_rate": [1, 1], "dtype": "float32", "strides": [1, 1], "padding": "same", "activity_regularizer": null}, "name": "conv2d_5", "inbound_nodes": [[["activation_4", 0, 0, {}]]], "class_name": "Conv2D"}, {"config": {"gamma_regularizer": null, "trainable": true, "dtype": "float32", "gamma_constraint": null, "axis": [3], "name": "batch_normalization_5", "momentum": 0.99, "epsilon": 0.001, "moving_variance_initializer": {"config": {"dtype": "float32"}, "class_name": "Ones"}, "scale": true, "moving_mean_initializer": {"config": {"dtype": "float32"}, "class_name": "Zeros"}, "beta_initializer": {"config": {"dtype": "float32"}, "class_name": "Zeros"}, "beta_regularizer": null, "beta_constraint": null, "center": true, "gamma_initializer": {"config": {"dtype": "float32"}, "class_name": "Ones"}}, "name": "batch_normalization_5", "inbound_nodes": [[["conv2d_5", 0, 0, {}]]], "class_name": "BatchNormalization"}, {"config": {"trainable": true, "dtype": "float32", "name": "activation_5", "activation": "relu"}, "name": "activation_5", "inbound_nodes": [[["batch_normalization_5", 0, 0, {}]]], "class_name": "Activation"}, {"config": {"trainable": true, "kernel_constraint": null, "name": "conv2d_6", "bias_regularizer": null, "use_bias": true, "activation": "linear", "kernel_initializer": {"config": {"mode": "fan_in", "seed": null, "distribution": "truncated_normal", "dtype": "float32", "scale": 2.0}, "class_name": "VarianceScaling"}, "filters": 16, "bias_initializer": {"config": {"dtype": "float32"}, "class_name": "Zeros"}, "kernel_size": [3, 3], "kernel_regularizer": {"config": {"l2": 9.999999747378752e-05, "l1": 0.0}, "class_name": "L1L2"}, "data_format": "channels_last", "bias_constraint": null, "dilation_rate": [1, 1], "dtype": "float32", "strides": [1, 1], "padding": "same", "activity_regularizer": null}, "name": "conv2d_6", "inbound_nodes": [[["activation_5", 0, 0, {}]]], "class_name": "Conv2D"}, {"config": {"gamma_regularizer": null, "trainable": true, "dtype": "float32", "gamma_constraint": null, "axis": [3], "name": "batch_normalization_6", "momentum": 0.99, "epsilon": 0.001, "moving_variance_initializer": {"config": {"dtype": "float32"}, "class_name": "Ones"}, "scale": true, "moving_mean_initializer": {"config": {"dtype": "float32"}, "class_name": "Zeros"}, "beta_initializer": {"config": {"dtype": "float32"}, "class_name": "Zeros"}, "beta_regularizer": null, "beta_constraint": null, "center": true, "gamma_initializer": {"config": {"dtype": "float32"}, "class_name": "Ones"}}, "name": "batch_normalization_6", "inbound_nodes": [[["conv2d_6", 0, 0, {}]]], "class_name": "BatchNormalization"}, {"config": {"trainable": true, "dtype": "float32", "name": "add_2"}, "name": "add_2", "inbound_nodes": [[["activation_4", 0, 0, {}], ["batch_normalization_6", 0, 0, {}]]], "class_name": "Add"}, {"config": {"trainable": true, "dtype": "float32", "name": "activation_6", "activation": "relu"}, "name": "activation_6", "inbound_nodes": [[["add_2", 0, 0, {}]]], "class_name": "Activation"}, {"config": {"trainable": true, "kernel_constraint": null, "name": "conv2d_7", "bias_regularizer": null, "use_bias": true, "activation": "linear", "kernel_initializer": {"config": {"mode": "fan_in", "seed": null, "distribution": "truncated_normal", "dtype": "float32", "scale": 2.0}, "class_name": "VarianceScaling"}, "filters": 16, "bias_initializer": {"config": {"dtype": "float32"}, "class_name": "Zeros"}, "kernel_size": [3, 3], "kernel_regularizer": {"config": {"l2": 9.999999747378752e-05, "l1": 0.0}, "class_name": "L1L2"}, "data_format": "channels_last", "bias_constraint": null, "dilation_rate": [1, 1], "dtype": "float32", "strides": [1, 1], "padding": "same", "activity_regularizer": null}, "name": "conv2d_7", "inbound_nodes": [[["activation_6", 0, 0, {}]]], "class_name": "Conv2D"}, {"config": {"gamma_regularizer": null, "trainable": true, "dtype": "float32", "gamma_constraint": null, "axis": [3], "name": "batch_normalization_7", "momentum": 0.99, "epsilon": 0.001, "moving_variance_initializer": {"config": {"dtype": "float32"}, "class_name": "Ones"}, "scale": true, "moving_mean_initializer": {"config": {"dtype": "float32"}, "class_name": "Zeros"}, "beta_initializer": {"config": {"dtype": "float32"}, "class_name": "Zeros"}, "beta_regularizer": null, "beta_constraint": null, "center": true, "gamma_initializer": {"config": {"dtype": "float32"}, "class_name": "Ones"}}, "name": "batch_normalization_7", "inbound_nodes": [[["conv2d_7", 0, 0, {}]]], "class_name": "BatchNormalization"}, {"config": {"trainable": true, "dtype": "float32", "name": "activation_7", "activation": "relu"}, "name": "activation_7", "inbound_nodes": [[["batch_normalization_7", 0, 0, {}]]], "class_name": "Activation"}, {"config": {"trainable": true, "kernel_constraint": null, "name": "conv2d_8", "bias_regularizer": null, "use_bias": true, "activation": "linear", "kernel_initializer": {"config": {"mode": "fan_in", "seed": null, "distribution": "truncated_normal", "dtype": "float32", "scale": 2.0}, "class_name": "VarianceScaling"}, "filters": 16, "bias_initializer": {"config": {"dtype": "float32"}, "class_name": "Zeros"}, "kernel_size": [3, 3], "kernel_regularizer": {"config": {"l2": 9.999999747378752e-05, "l1": 0.0}, "class_name": "L1L2"}, "data_format": "channels_last", "bias_constraint": null, "dilation_rate": [1, 1], "dtype": "float32", "strides": [1, 1], "padding": "same", "activity_regularizer": null}, "name": "conv2d_8", "inbound_nodes": [[["activation_7", 0, 0, {}]]], "class_name": "Conv2D"}, {"config": {"gamma_regularizer": null, "trainable": true, "dtype": "float32", "gamma_constraint": null, "axis": [3], "name": "batch_normalization_8", "momentum": 0.99, "epsilon": 0.001, "moving_variance_initializer": {"config": {"dtype": "float32"}, "class_name": "Ones"}, "scale": true, "moving_mean_initializer": {"config": {"dtype": "float32"}, "class_name": "Zeros"}, "beta_initializer": {"config": {"dtype": "float32"}, "class_name": "Zeros"}, "beta_regularizer": null, "beta_constraint": null, "center": true, "gamma_initializer": {"config": {"dtype": "float32"}, "class_name": "Ones"}}, "name": "batch_normalization_8", "inbound_nodes": [[["conv2d_8", 0, 0, {}]]], "class_name": "BatchNormalization"}, {"config": {"trainable": true, "dtype": "float32", "name": "add_3"}, "name": "add_3", "inbound_nodes": [[["activation_6", 0, 0, {}], ["batch_normalization_8", 0, 0, {}]]], "class_name": "Add"}, {"config": {"trainable": true, "dtype": "float32", "name": "activation_8", "activation": "relu"}, "name": "activation_8", "inbound_nodes": [[["add_3", 0, 0, {}]]], "class_name": "Activation"}, {"config": {"trainable": true, "kernel_constraint": null, "name": "conv2d_9", "bias_regularizer": null, "use_bias": true, "activation": "linear", "kernel_initializer": {"config": {"mode": "fan_in", "seed": null, "distribution": "truncated_normal", "dtype": "float32", "scale": 2.0}, "class_name": "VarianceScaling"}, "filters": 32, "bias_initializer": {"config": {"dtype": "float32"}, "class_name": "Zeros"}, "kernel_size": [3, 3], "kernel_regularizer": {"config": {"l2": 9.999999747378752e-05, "l1": 0.0}, "class_name": "L1L2"}, "data_format": "channels_last", "bias_constraint": null, "dilation_rate": [1, 1], "dtype": "float32", "strides": [2, 2], "padding": "same", "activity_regularizer": null}, "name": "conv2d_9", "inbound_nodes": [[["activation_8", 0, 0, {}]]], "class_name": "Conv2D"}, {"config": {"gamma_regularizer": null, "trainable": true, "dtype": "float32", "gamma_constraint": null, "axis": [3], "name": "batch_normalization_9", "momentum": 0.99, "epsilon": 0.001, "moving_variance_initializer": {"config": {"dtype": "float32"}, "class_name": "Ones"}, "scale": true, "moving_mean_initializer": {"config": {"dtype": "float32"}, "class_name": "Zeros"}, "beta_initializer": {"config": {"dtype": "float32"}, "class_name": "Zeros"}, "beta_regularizer": null, "beta_constraint": null, "center": true, "gamma_initializer": {"config": {"dtype": "float32"}, "class_name": "Ones"}}, "name": "batch_normalization_9", "inbound_nodes": [[["conv2d_9", 0, 0, {}]]], "class_name": "BatchNormalization"}, {"config": {"trainable": true, "dtype": "float32", "name": "activation_9", "activation": "relu"}, "name": "activation_9", "inbound_nodes": [[["batch_normalization_9", 0, 0, {}]]], "class_name": "Activation"}, {"config": {"trainable": true, "kernel_constraint": null, "name": "conv2d_10", "bias_regularizer": null, "use_bias": true, "activation": "linear", "kernel_initializer": {"config": {"mode": "fan_in", "seed": null, "distribution": "truncated_normal", "dtype": "float32", "scale": 2.0}, "class_name": "VarianceScaling"}, "filters": 32, "bias_initializer": {"config": {"dtype": "float32"}, "class_name": "Zeros"}, "kernel_size": [3, 3], "kernel_regularizer": {"config": {"l2": 9.999999747378752e-05, "l1": 0.0}, "class_name": "L1L2"}, "data_format": "channels_last", "bias_constraint": null, "dilation_rate": [1, 1], "dtype": "float32", "strides": [1, 1], "padding": "same", "activity_regularizer": null}, "name": "conv2d_10", "inbound_nodes": [[["activation_9", 0, 0, {}]]], "class_name": "Conv2D"}, {"config": {"trainable": true, "kernel_constraint": null, "name": "conv2d_11", "bias_regularizer": null, "use_bias": true, "activation": "linear", "kernel_initializer": {"config": {"mode": "fan_in", "seed": null, "distribution": "truncated_normal", "dtype": "float32", "scale": 2.0}, "class_name": "VarianceScaling"}, "filters": 32, "bias_initializer": {"config": {"dtype": "float32"}, "class_name": "Zeros"}, "kernel_size": [1, 1], "kernel_regularizer": {"config": {"l2": 9.999999747378752e-05, "l1": 0.0}, "class_name": "L1L2"}, "data_format": "channels_last", "bias_constraint": null, "dilation_rate": [1, 1], "dtype": "float32", "strides": [2, 2], "padding": "same", "activity_regularizer": null}, "name": "conv2d_11", "inbound_nodes": [[["activation_8", 0, 0, {}]]], "class_name": "Conv2D"}, {"config": {"gamma_regularizer": null, "trainable": true, "dtype": "float32", "gamma_constraint": null, "axis": [3], "name": "batch_normalization_10", "momentum": 0.99, "epsilon": 0.001, "moving_variance_initializer": {"config": {"dtype": "float32"}, "class_name": "Ones"}, "scale": true, "moving_mean_initializer": {"config": {"dtype": "float32"}, "class_name": "Zeros"}, "beta_initializer": {"config": {"dtype": "float32"}, "class_name": "Zeros"}, "beta_regularizer": null, "beta_constraint": null, "center": true, "gamma_initializer": {"config": {"dtype": "float32"}, "class_name": "Ones"}}, "name": "batch_normalization_10", "inbound_nodes": [[["conv2d_10", 0, 0, {}]]], "class_name": "BatchNormalization"}, {"config": {"trainable": true, "dtype": "float32", "name": "add_4"}, "name": "add_4", "inbound_nodes": [[["conv2d_11", 0, 0, {}], ["batch_normalization_10", 0, 0, {}]]], "class_name": "Add"}, {"config": {"trainable": true, "dtype": "float32", "name": "activation_10", "activation": "relu"}, "name": "activation_10", "inbound_nodes": [[["add_4", 0, 0, {}]]], "class_name": "Activation"}, {"config": {"trainable": true, "kernel_constraint": null, "name": "conv2d_12", "bias_regularizer": null, "use_bias": true, "activation": "linear", "kernel_initializer": {"config": {"mode": "fan_in", "seed": null, "distribution": "truncated_normal", "dtype": "float32", "scale": 2.0}, "class_name": "VarianceScaling"}, "filters": 32, "bias_initializer": {"config": {"dtype": "float32"}, "class_name": "Zeros"}, "kernel_size": [3, 3], "kernel_regularizer": {"config": {"l2": 9.999999747378752e-05, "l1": 0.0}, "class_name": "L1L2"}, "data_format": "channels_last", "bias_constraint": null, "dilation_rate": [1, 1], "dtype": "float32", "strides": [1, 1], "padding": "same", "activity_regularizer": null}, "name": "conv2d_12", "inbound_nodes": [[["activation_10", 0, 0, {}]]], "class_name": "Conv2D"}, {"config": {"gamma_regularizer": null, "trainable": true, "dtype": "float32", "gamma_constraint": null, "axis": [3], "name": "batch_normalization_11", "momentum": 0.99, "epsilon": 0.001, "moving_variance_initializer": {"config": {"dtype": "float32"}, "class_name": "Ones"}, "scale": true, "moving_mean_initializer": {"config": {"dtype": "float32"}, "class_name": "Zeros"}, "beta_initializer": {"config": {"dtype": "float32"}, "class_name": "Zeros"}, "beta_regularizer": null, "beta_constraint": null, "center": true, "gamma_initializer": {"config": {"dtype": "float32"}, "class_name": "Ones"}}, "name": "batch_normalization_11", "inbound_nodes": [[["conv2d_12", 0, 0, {}]]], "class_name": "BatchNormalization"}, {"config": {"trainable": true, "dtype": "float32", "name": "activation_11", "activation": "relu"}, "name": "activation_11", "inbound_nodes": [[["batch_normalization_11", 0, 0, {}]]], "class_name": "Activation"}, {"config": {"trainable": true, "kernel_constraint": null, "name": "conv2d_13", "bias_regularizer": null, "use_bias": true, "activation": "linear", "kernel_initializer": {"config": {"mode": "fan_in", "seed": null, "distribution": "truncated_normal", "dtype": "float32", "scale": 2.0}, "class_name": "VarianceScaling"}, "filters": 32, "bias_initializer": {"config": {"dtype": "float32"}, "class_name": "Zeros"}, "kernel_size": [3, 3], "kernel_regularizer": {"config": {"l2": 9.999999747378752e-05, "l1": 0.0}, "class_name": "L1L2"}, "data_format": "channels_last", "bias_constraint": null, "dilation_rate": [1, 1], "dtype": "float32", "strides": [1, 1], "padding": "same", "activity_regularizer": null}, "name": "conv2d_13", "inbound_nodes": [[["activation_11", 0, 0, {}]]], "class_name": "Conv2D"}, {"config": {"gamma_regularizer": null, "trainable": true, "dtype": "float32", "gamma_constraint": null, "axis": [3], "name": "batch_normalization_12", "momentum": 0.99, "epsilon": 0.001, "moving_variance_initializer": {"config": {"dtype": "float32"}, "class_name": "Ones"}, "scale": true, "moving_mean_initializer": {"config": {"dtype": "float32"}, "class_name": "Zeros"}, "beta_initializer": {"config": {"dtype": "float32"}, "class_name": "Zeros"}, "beta_regularizer": null, "beta_constraint": null, "center": true, "gamma_initializer": {"config": {"dtype": "float32"}, "class_name": "Ones"}}, "name": "batch_normalization_12", "inbound_nodes": [[["conv2d_13", 0, 0, {}]]], "class_name": "BatchNormalization"}, {"config": {"trainable": true, "dtype": "float32", "name": "add_5"}, "name": "add_5", "inbound_nodes": [[["activation_10", 0, 0, {}], ["batch_normalization_12", 0, 0, {}]]], "class_name": "Add"}, {"config": {"trainable": true, "dtype": "float32", "name": "activation_12", "activation": "relu"}, "name": "activation_12", "inbound_nodes": [[["add_5", 0, 0, {}]]], "class_name": "Activation"}, {"config": {"trainable": true, "kernel_constraint": null, "name": "conv2d_14", "bias_regularizer": null, "use_bias": true, "activation": "linear", "kernel_initializer": {"config": {"mode": "fan_in", "seed": null, "distribution": "truncated_normal", "dtype": "float32", "scale": 2.0}, "class_name": "VarianceScaling"}, "filters": 32, "bias_initializer": {"config": {"dtype": "float32"}, "class_name": "Zeros"}, "kernel_size": [3, 3], "kernel_regularizer": {"config": {"l2": 9.999999747378752e-05, "l1": 0.0}, "class_name": "L1L2"}, "data_format": "channels_last", "bias_constraint": null, "dilation_rate": [1, 1], "dtype": "float32", "strides": [1, 1], "padding": "same", "activity_regularizer": null}, "name": "conv2d_14", "inbound_nodes": [[["activation_12", 0, 0, {}]]], "class_name": "Conv2D"}, {"config": {"gamma_regularizer": null, "trainable": true, "dtype": "float32", "gamma_constraint": null, "axis": [3], "name": "batch_normalization_13", "momentum": 0.99, "epsilon": 0.001, "moving_variance_initializer": {"config": {"dtype": "float32"}, "class_name": "Ones"}, "scale": true, "moving_mean_initializer": {"config": {"dtype": "float32"}, "class_name": "Zeros"}, "beta_initializer": {"config": {"dtype": "float32"}, "class_name": "Zeros"}, "beta_regularizer": null, "beta_constraint": null, "center": true, "gamma_initializer": {"config": {"dtype": "float32"}, "class_name": "Ones"}}, "name": "batch_normalization_13", "inbound_nodes": [[["conv2d_14", 0, 0, {}]]], "class_name": "BatchNormalization"}, {"config": {"trainable": true, "dtype": "float32", "name": "activation_13", "activation": "relu"}, "name": "activation_13", "inbound_nodes": [[["batch_normalization_13", 0, 0, {}]]], "class_name": "Activation"}, {"config": {"trainable": true, "kernel_constraint": null, "name": "conv2d_15", "bias_regularizer": null, "use_bias": true, "activation": "linear", "kernel_initializer": {"config": {"mode": "fan_in", "seed": null, "distribution": "truncated_normal", "dtype": "float32", "scale": 2.0}, "class_name": "VarianceScaling"}, "filters": 32, "bias_initializer": {"config": {"dtype": "float32"}, "class_name": "Zeros"}, "kernel_size": [3, 3], "kernel_regularizer": {"config": {"l2": 9.999999747378752e-05, "l1": 0.0}, "class_name": "L1L2"}, "data_format": "channels_last", "bias_constraint": null, "dilation_rate": [1, 1], "dtype": "float32", "strides": [1, 1], "padding": "same", "activity_regularizer": null}, "name": "conv2d_15", "inbound_nodes": [[["activation_13", 0, 0, {}]]], "class_name": "Conv2D"}, {"config": {"gamma_regularizer": null, "trainable": true, "dtype": "float32", "gamma_constraint": null, "axis": [3], "name": "batch_normalization_14", "momentum": 0.99, "epsilon": 0.001, "moving_variance_initializer": {"config": {"dtype": "float32"}, "class_name": "Ones"}, "scale": true, "moving_mean_initializer": {"config": {"dtype": "float32"}, "class_name": "Zeros"}, "beta_initializer": {"config": {"dtype": "float32"}, "class_name": "Zeros"}, "beta_regularizer": null, "beta_constraint": null, "center": true, "gamma_initializer": {"config": {"dtype": "float32"}, "class_name": "Ones"}}, "name": "batch_normalization_14", "inbound_nodes": [[["conv2d_15", 0, 0, {}]]], "class_name": "BatchNormalization"}, {"config": {"trainable": true, "dtype": "float32", "name": "add_6"}, "name": "add_6", "inbound_nodes": [[["activation_12", 0, 0, {}], ["batch_normalization_14", 0, 0, {}]]], "class_name": "Add"}, {"config": {"trainable": true, "dtype": "float32", "name": "activation_14", "activation": "relu"}, "name": "activation_14", "inbound_nodes": [[["add_6", 0, 0, {}]]], "class_name": "Activation"}, {"config": {"trainable": true, "kernel_constraint": null, "name": "conv2d_16", "bias_regularizer": null, "use_bias": true, "activation": "linear", "kernel_initializer": {"config": {"mode": "fan_in", "seed": null, "distribution": "truncated_normal", "dtype": "float32", "scale": 2.0}, "class_name": "VarianceScaling"}, "filters": 32, "bias_initializer": {"config": {"dtype": "float32"}, "class_name": "Zeros"}, "kernel_size": [3, 3], "kernel_regularizer": {"config": {"l2": 9.999999747378752e-05, "l1": 0.0}, "class_name": "L1L2"}, "data_format": "channels_last", "bias_constraint": null, "dilation_rate": [1, 1], "dtype": "float32", "strides": [1, 1], "padding": "same", "activity_regularizer": null}, "name": "conv2d_16", "inbound_nodes": [[["activation_14", 0, 0, {}]]], "class_name": "Conv2D"}, {"config": {"gamma_regularizer": null, "trainable": true, "dtype": "float32", "gamma_constraint": null, "axis": [3], "name": "batch_normalization_15", "momentum": 0.99, "epsilon": 0.001, "moving_variance_initializer": {"config": {"dtype": "float32"}, "class_name": "Ones"}, "scale": true, "moving_mean_initializer": {"config": {"dtype": "float32"}, "class_name": "Zeros"}, "beta_initializer": {"config": {"dtype": "float32"}, "class_name": "Zeros"}, "beta_regularizer": null, "beta_constraint": null, "center": true, "gamma_initializer": {"config": {"dtype": "float32"}, "class_name": "Ones"}}, "name": "batch_normalization_15", "inbound_nodes": [[["conv2d_16", 0, 0, {}]]], "class_name": "BatchNormalization"}, {"config": {"trainable": true, "dtype": "float32", "name": "activation_15", "activation": "relu"}, "name": "activation_15", "inbound_nodes": [[["batch_normalization_15", 0, 0, {}]]], "class_name": "Activation"}, {"config": {"trainable": true, "kernel_constraint": null, "name": "conv2d_17", "bias_regularizer": null, "use_bias": true, "activation": "linear", "kernel_initializer": {"config": {"mode": "fan_in", "seed": null, "distribution": "truncated_normal", "dtype": "float32", "scale": 2.0}, "class_name": "VarianceScaling"}, "filters": 32, "bias_initializer": {"config": {"dtype": "float32"}, "class_name": "Zeros"}, "kernel_size": [3, 3], "kernel_regularizer": {"config": {"l2": 9.999999747378752e-05, "l1": 0.0}, "class_name": "L1L2"}, "data_format": "channels_last", "bias_constraint": null, "dilation_rate": [1, 1], "dtype": "float32", "strides": [1, 1], "padding": "same", "activity_regularizer": null}, "name": "conv2d_17", "inbound_nodes": [[["activation_15", 0, 0, {}]]], "class_name": "Conv2D"}, {"config": {"gamma_regularizer": null, "trainable": true, "dtype": "float32", "gamma_constraint": null, "axis": [3], "name": "batch_normalization_16", "momentum": 0.99, "epsilon": 0.001, "moving_variance_initializer": {"config": {"dtype": "float32"}, "class_name": "Ones"}, "scale": true, "moving_mean_initializer": {"config": {"dtype": "float32"}, "class_name": "Zeros"}, "beta_initializer": {"config": {"dtype": "float32"}, "class_name": "Zeros"}, "beta_regularizer": null, "beta_constraint": null, "center": true, "gamma_initializer": {"config": {"dtype": "float32"}, "class_name": "Ones"}}, "name": "batch_normalization_16", "inbound_nodes": [[["conv2d_17", 0, 0, {}]]], "class_name": "BatchNormalization"}, {"config": {"trainable": true, "dtype": "float32", "name": "add_7"}, "name": "add_7", "inbound_nodes": [[["activation_14", 0, 0, {}], ["batch_normalization_16", 0, 0, {}]]], "class_name": "Add"}, {"config": {"trainable": true, "dtype": "float32", "name": "activation_16", "activation": "relu"}, "name": "activation_16", "inbound_nodes": [[["add_7", 0, 0, {}]]], "class_name": "Activation"}, {"config": {"trainable": true, "kernel_constraint": null, "name": "conv2d_18", "bias_regularizer": null, "use_bias": true, "activation": "linear", "kernel_initializer": {"config": {"mode": "fan_in", "seed": null, "distribution": "truncated_normal", "dtype": "float32", "scale": 2.0}, "class_name": "VarianceScaling"}, "filters": 64, "bias_initializer": {"config": {"dtype": "float32"}, "class_name": "Zeros"}, "kernel_size": [3, 3], "kernel_regularizer": {"config": {"l2": 9.999999747378752e-05, "l1": 0.0}, "class_name": "L1L2"}, "data_format": "channels_last", "bias_constraint": null, "dilation_rate": [1, 1], "dtype": "float32", "strides": [2, 2], "padding": "same", "activity_regularizer": null}, "name": "conv2d_18", "inbound_nodes": [[["activation_16", 0, 0, {}]]], "class_name": "Conv2D"}, {"config": {"gamma_regularizer": null, "trainable": true, "dtype": "float32", "gamma_constraint": null, "axis": [3], "name": "batch_normalization_17", "momentum": 0.99, "epsilon": 0.001, "moving_variance_initializer": {"config": {"dtype": "float32"}, "class_name": "Ones"}, "scale": true, "moving_mean_initializer": {"config": {"dtype": "float32"}, "class_name": "Zeros"}, "beta_initializer": {"config": {"dtype": "float32"}, "class_name": "Zeros"}, "beta_regularizer": null, "beta_constraint": null, "center": true, "gamma_initializer": {"config": {"dtype": "float32"}, "class_name": "Ones"}}, "name": "batch_normalization_17", "inbound_nodes": [[["conv2d_18", 0, 0, {}]]], "class_name": "BatchNormalization"}, {"config": {"trainable": true, "dtype": "float32", "name": "activation_17", "activation": "relu"}, "name": "activation_17", "inbound_nodes": [[["batch_normalization_17", 0, 0, {}]]], "class_name": "Activation"}, {"config": {"trainable": true, "kernel_constraint": null, "name": "conv2d_19", "bias_regularizer": null, "use_bias": true, "activation": "linear", "kernel_initializer": {"config": {"mode": "fan_in", "seed": null, "distribution": "truncated_normal", "dtype": "float32", "scale": 2.0}, "class_name": "VarianceScaling"}, "filters": 64, "bias_initializer": {"config": {"dtype": "float32"}, "class_name": "Zeros"}, "kernel_size": [3, 3], "kernel_regularizer": {"config": {"l2": 9.999999747378752e-05, "l1": 0.0}, "class_name": "L1L2"}, "data_format": "channels_last", "bias_constraint": null, "dilation_rate": [1, 1], "dtype": "float32", "strides": [1, 1], "padding": "same", "activity_regularizer": null}, "name": "conv2d_19", "inbound_nodes": [[["activation_17", 0, 0, {}]]], "class_name": "Conv2D"}, {"config": {"trainable": true, "kernel_constraint": null, "name": "conv2d_20", "bias_regularizer": null, "use_bias": true, "activation": "linear", "kernel_initializer": {"config": {"mode": "fan_in", "seed": null, "distribution": "truncated_normal", "dtype": "float32", "scale": 2.0}, "class_name": "VarianceScaling"}, "filters": 64, "bias_initializer": {"config": {"dtype": "float32"}, "class_name": "Zeros"}, "kernel_size": [1, 1], "kernel_regularizer": {"config": {"l2": 9.999999747378752e-05, "l1": 0.0}, "class_name": "L1L2"}, "data_format": "channels_last", "bias_constraint": null, "dilation_rate": [1, 1], "dtype": "float32", "strides": [2, 2], "padding": "same", "activity_regularizer": null}, "name": "conv2d_20", "inbound_nodes": [[["activation_16", 0, 0, {}]]], "class_name": "Conv2D"}, {"config": {"gamma_regularizer": null, "trainable": true, "dtype": "float32", "gamma_constraint": null, "axis": [3], "name": "batch_normalization_18", "momentum": 0.99, "epsilon": 0.001, "moving_variance_initializer": {"config": {"dtype": "float32"}, "class_name": "Ones"}, "scale": true, "moving_mean_initializer": {"config": {"dtype": "float32"}, "class_name": "Zeros"}, "beta_initializer": {"config": {"dtype": "float32"}, "class_name": "Zeros"}, "beta_regularizer": null, "beta_constraint": null, "center": true, "gamma_initializer": {"config": {"dtype": "float32"}, "class_name": "Ones"}}, "name": "batch_normalization_18", "inbound_nodes": [[["conv2d_19", 0, 0, {}]]], "class_name": "BatchNormalization"}, {"config": {"trainable": true, "dtype": "float32", "name": "add_8"}, "name": "add_8", "inbound_nodes": [[["conv2d_20", 0, 0, {}], ["batch_normalization_18", 0, 0, {}]]], "class_name": "Add"}, {"config": {"trainable": true, "dtype": "float32", "name": "activation_18", "activation": "relu"}, "name": "activation_18", "inbound_nodes": [[["add_8", 0, 0, {}]]], "class_name": "Activation"}, {"config": {"trainable": true, "kernel_constraint": null, "name": "conv2d_21", "bias_regularizer": null, "use_bias": true, "activation": "linear", "kernel_initializer": {"config": {"mode": "fan_in", "seed": null, "distribution": "truncated_normal", "dtype": "float32", "scale": 2.0}, "class_name": "VarianceScaling"}, "filters": 64, "bias_initializer": {"config": {"dtype": "float32"}, "class_name": "Zeros"}, "kernel_size": [3, 3], "kernel_regularizer": {"config": {"l2": 9.999999747378752e-05, "l1": 0.0}, "class_name": "L1L2"}, "data_format": "channels_last", "bias_constraint": null, "dilation_rate": [1, 1], "dtype": "float32", "strides": [1, 1], "padding": "same", "activity_regularizer": null}, "name": "conv2d_21", "inbound_nodes": [[["activation_18", 0, 0, {}]]], "class_name": "Conv2D"}, {"config": {"gamma_regularizer": null, "trainable": true, "dtype": "float32", "gamma_constraint": null, "axis": [3], "name": "batch_normalization_19", "momentum": 0.99, "epsilon": 0.001, "moving_variance_initializer": {"config": {"dtype": "float32"}, "class_name": "Ones"}, "scale": true, "moving_mean_initializer": {"config": {"dtype": "float32"}, "class_name": "Zeros"}, "beta_initializer": {"config": {"dtype": "float32"}, "class_name": "Zeros"}, "beta_regularizer": null, "beta_constraint": null, "center": true, "gamma_initializer": {"config": {"dtype": "float32"}, "class_name": "Ones"}}, "name": "batch_normalization_19", "inbound_nodes": [[["conv2d_21", 0, 0, {}]]], "class_name": "BatchNormalization"}, {"config": {"trainable": true, "dtype": "float32", "name": "activation_19", "activation": "relu"}, "name": "activation_19", "inbound_nodes": [[["batch_normalization_19", 0, 0, {}]]], "class_name": "Activation"}, {"config": {"trainable": true, "kernel_constraint": null, "name": "conv2d_22", "bias_regularizer": null, "use_bias": true, "activation": "linear", "kernel_initializer": {"config": {"mode": "fan_in", "seed": null, "distribution": "truncated_normal", "dtype": "float32", "scale": 2.0}, "class_name": "VarianceScaling"}, "filters": 64, "bias_initializer": {"config": {"dtype": "float32"}, "class_name": "Zeros"}, "kernel_size": [3, 3], "kernel_regularizer": {"config": {"l2": 9.999999747378752e-05, "l1": 0.0}, "class_name": "L1L2"}, "data_format": "channels_last", "bias_constraint": null, "dilation_rate": [1, 1], "dtype": "float32", "strides": [1, 1], "padding": "same", "activity_regularizer": null}, "name": "conv2d_22", "inbound_nodes": [[["activation_19", 0, 0, {}]]], "class_name": "Conv2D"}, {"config": {"gamma_regularizer": null, "trainable": true, "dtype": "float32", "gamma_constraint": null, "axis": [3], "name": "batch_normalization_20", "momentum": 0.99, "epsilon": 0.001, "moving_variance_initializer": {"config": {"dtype": "float32"}, "class_name": "Ones"}, "scale": true, "moving_mean_initializer": {"config": {"dtype": "float32"}, "class_name": "Zeros"}, "beta_initializer": {"config": {"dtype": "float32"}, "class_name": "Zeros"}, "beta_regularizer": null, "beta_constraint": null, "center": true, "gamma_initializer": {"config": {"dtype": "float32"}, "class_name": "Ones"}}, "name": "batch_normalization_20", "inbound_nodes": [[["conv2d_22", 0, 0, {}]]], "class_name": "BatchNormalization"}, {"config": {"trainable": true, "dtype": "float32", "name": "add_9"}, "name": "add_9", "inbound_nodes": [[["activation_18", 0, 0, {}], ["batch_normalization_20", 0, 0, {}]]], "class_name": "Add"}, {"config": {"trainable": true, "dtype": "float32", "name": "activation_20", "activation": "relu"}, "name": "activation_20", "inbound_nodes": [[["add_9", 0, 0, {}]]], "class_name": "Activation"}, {"config": {"trainable": true, "kernel_constraint": null, "name": "conv2d_23", "bias_regularizer": null, "use_bias": true, "activation": "linear", "kernel_initializer": {"config": {"mode": "fan_in", "seed": null, "distribution": "truncated_normal", "dtype": "float32", "scale": 2.0}, "class_name": "VarianceScaling"}, "filters": 64, "bias_initializer": {"config": {"dtype": "float32"}, "class_name": "Zeros"}, "kernel_size": [3, 3], "kernel_regularizer": {"config": {"l2": 9.999999747378752e-05, "l1": 0.0}, "class_name": "L1L2"}, "data_format": "channels_last", "bias_constraint": null, "dilation_rate": [1, 1], "dtype": "float32", "strides": [1, 1], "padding": "same", "activity_regularizer": null}, "name": "conv2d_23", "inbound_nodes": [[["activation_20", 0, 0, {}]]], "class_name": "Conv2D"}, {"config": {"gamma_regularizer": null, "trainable": true, "dtype": "float32", "gamma_constraint": null, "axis": [3], "name": "batch_normalization_21", "momentum": 0.99, "epsilon": 0.001, "moving_variance_initializer": {"config": {"dtype": "float32"}, "class_name": "Ones"}, "scale": true, "moving_mean_initializer": {"config": {"dtype": "float32"}, "class_name": "Zeros"}, "beta_initializer": {"config": {"dtype": "float32"}, "class_name": "Zeros"}, "beta_regularizer": null, "beta_constraint": null, "center": true, "gamma_initializer": {"config": {"dtype": "float32"}, "class_name": "Ones"}}, "name": "batch_normalization_21", "inbound_nodes": [[["conv2d_23", 0, 0, {}]]], "class_name": "BatchNormalization"}, {"config": {"trainable": true, "dtype": "float32", "name": "activation_21", "activation": "relu"}, "name": "activation_21", "inbound_nodes": [[["batch_normalization_21", 0, 0, {}]]], "class_name": "Activation"}, {"config": {"trainable": true, "kernel_constraint": null, "name": "conv2d_24", "bias_regularizer": null, "use_bias": true, "activation": "linear", "kernel_initializer": {"config": {"mode": "fan_in", "seed": null, "distribution": "truncated_normal", "dtype": "float32", "scale": 2.0}, "class_name": "VarianceScaling"}, "filters": 64, "bias_initializer": {"config": {"dtype": "float32"}, "class_name": "Zeros"}, "kernel_size": [3, 3], "kernel_regularizer": {"config": {"l2": 9.999999747378752e-05, "l1": 0.0}, "class_name": "L1L2"}, "data_format": "channels_last", "bias_constraint": null, "dilation_rate": [1, 1], "dtype": "float32", "strides": [1, 1], "padding": "same", "activity_regularizer": null}, "name": "conv2d_24", "inbound_nodes": [[["activation_21", 0, 0, {}]]], "class_name": "Conv2D"}, {"config": {"gamma_regularizer": null, "trainable": true, "dtype": "float32", "gamma_constraint": null, "axis": [3], "name": "batch_normalization_22", "momentum": 0.99, "epsilon": 0.001, "moving_variance_initializer": {"config": {"dtype": "float32"}, "class_name": "Ones"}, "scale": true, "moving_mean_initializer": {"config": {"dtype": "float32"}, "class_name": "Zeros"}, "beta_initializer": {"config": {"dtype": "float32"}, "class_name": "Zeros"}, "beta_regularizer": null, "beta_constraint": null, "center": true, "gamma_initializer": {"config": {"dtype": "float32"}, "class_name": "Ones"}}, "name": "batch_normalization_22", "inbound_nodes": [[["conv2d_24", 0, 0, {}]]], "class_name": "BatchNormalization"}, {"config": {"trainable": true, "dtype": "float32", "name": "add_10"}, "name": "add_10", "inbound_nodes": [[["activation_20", 0, 0, {}], ["batch_normalization_22", 0, 0, {}]]], "class_name": "Add"}, {"config": {"trainable": true, "dtype": "float32", "name": "activation_22", "activation": "relu"}, "name": "activation_22", "inbound_nodes": [[["add_10", 0, 0, {}]]], "class_name": "Activation"}, {"config": {"trainable": true, "kernel_constraint": null, "name": "conv2d_25", "bias_regularizer": null, "use_bias": true, "activation": "linear", "kernel_initializer": {"config": {"mode": "fan_in", "seed": null, "distribution": "truncated_normal", "dtype": "float32", "scale": 2.0}, "class_name": "VarianceScaling"}, "filters": 64, "bias_initializer": {"config": {"dtype": "float32"}, "class_name": "Zeros"}, "kernel_size": [3, 3], "kernel_regularizer": {"config": {"l2": 9.999999747378752e-05, "l1": 0.0}, "class_name": "L1L2"}, "data_format": "channels_last", "bias_constraint": null, "dilation_rate": [1, 1], "dtype": "float32", "strides": [1, 1], "padding": "same", "activity_regularizer": null}, "name": "conv2d_25", "inbound_nodes": [[["activation_22", 0, 0, {}]]], "class_name": "Conv2D"}, {"config": {"gamma_regularizer": null, "trainable": true, "dtype": "float32", "gamma_constraint": null, "axis": [3], "name": "batch_normalization_23", "momentum": 0.99, "epsilon": 0.001, "moving_variance_initializer": {"config": {"dtype": "float32"}, "class_name": "Ones"}, "scale": true, "moving_mean_initializer": {"config": {"dtype": "float32"}, "class_name": "Zeros"}, "beta_initializer": {"config": {"dtype": "float32"}, "class_name": "Zeros"}, "beta_regularizer": null, "beta_constraint": null, "center": true, "gamma_initializer": {"config": {"dtype": "float32"}, "class_name": "Ones"}}, "name": "batch_normalization_23", "inbound_nodes": [[["conv2d_25", 0, 0, {}]]], "class_name": "BatchNormalization"}, {"config": {"trainable": true, "dtype": "float32", "name": "activation_23", "activation": "relu"}, "name": "activation_23", "inbound_nodes": [[["batch_normalization_23", 0, 0, {}]]], "class_name": "Activation"}, {"config": {"trainable": true, "kernel_constraint": null, "name": "conv2d_26", "bias_regularizer": null, "use_bias": true, "activation": "linear", "kernel_initializer": {"config": {"mode": "fan_in", "seed": null, "distribution": "truncated_normal", "dtype": "float32", "scale": 2.0}, "class_name": "VarianceScaling"}, "filters": 64, "bias_initializer": {"config": {"dtype": "float32"}, "class_name": "Zeros"}, "kernel_size": [3, 3], "kernel_regularizer": {"config": {"l2": 9.999999747378752e-05, "l1": 0.0}, "class_name": "L1L2"}, "data_format": "channels_last", "bias_constraint": null, "dilation_rate": [1, 1], "dtype": "float32", "strides": [1, 1], "padding": "same", "activity_regularizer": null}, "name": "conv2d_26", "inbound_nodes": [[["activation_23", 0, 0, {}]]], "class_name": "Conv2D"}, {"config": {"gamma_regularizer": null, "trainable": true, "dtype": "float32", "gamma_constraint": null, "axis": [3], "name": "batch_normalization_24", "momentum": 0.99, "epsilon": 0.001, "moving_variance_initializer": {"config": {"dtype": "float32"}, "class_name": "Ones"}, "scale": true, "moving_mean_initializer": {"config": {"dtype": "float32"}, "class_name": "Zeros"}, "beta_initializer": {"config": {"dtype": "float32"}, "class_name": "Zeros"}, "beta_regularizer": null, "beta_constraint": null, "center": true, "gamma_initializer": {"config": {"dtype": "float32"}, "class_name": "Ones"}}, "name": "batch_normalization_24", "inbound_nodes": [[["conv2d_26", 0, 0, {}]]], "class_name": "BatchNormalization"}, {"config": {"trainable": true, "dtype": "float32", "name": "add_11"}, "name": "add_11", "inbound_nodes": [[["activation_22", 0, 0, {}], ["batch_normalization_24", 0, 0, {}]]], "class_name": "Add"}, {"config": {"trainable": true, "dtype": "float32", "name": "activation_24", "activation": "relu"}, "name": "activation_24", "inbound_nodes": [[["add_11", 0, 0, {}]]], "class_name": "Activation"}, {"config": {"data_format": "channels_last", "trainable": true, "dtype": "float32", "name": "average_pooling2d", "strides": [2, 2], "padding": "valid", "pool_size": [2, 2]}, "name": "average_pooling2d", "inbound_nodes": [[["activation_24", 0, 0, {}]]], "class_name": "AveragePooling2D"}, {"config": {"data_format": "channels_last", "trainable": true, "dtype": "float32", "name": "flatten"}, "name": "flatten", "inbound_nodes": [[["average_pooling2d", 0, 0, {}]]], "class_name": "Flatten"}, {"config": {"trainable": true, "kernel_constraint": null, "name": "dense", "bias_regularizer": null, "use_bias": true, "kernel_initializer": {"config": {"mode": "fan_in", "seed": null, "distribution": "truncated_normal", "dtype": "float32", "scale": 2.0}, "class_name": "VarianceScaling"}, "units": 2, "bias_initializer": {"config": {"dtype": "float32"}, "class_name": "Zeros"}, "kernel_regularizer": null, "bias_constraint": null, "activation": "softmax", "dtype": "float32", "activity_regularizer": null}, "name": "dense", "inbound_nodes": [[["flatten", 0, 0, {}]]], "class_name": "Dense"}], "output_layers": [["dense", 0, 0]], "name": "model"}, "class_name": "Model", "keras_version": "2.1.6-tf"}