{"backend": "tensorflow", "config": {"name": "model", "input_layers": [["input_1", 0, 0]], "output_layers": [["dense", 0, 0]], "layers": [{"name": "input_1", "inbound_nodes": [], "config": {"batch_input_shape": [null, 48, 48, 3], "sparse": false, "dtype": "float32", "name": "input_1"}, "class_name": "InputLayer"}, {"name": "conv2d", "inbound_nodes": [[["input_1", 0, 0, {}]]], "config": {"bias_constraint": null, "filters": 16, "bias_regularizer": null, "data_format": "channels_last", "kernel_regularizer": {"class_name": "L1L2", "config": {"l2": 9.999999747378752e-05, "l1": 0.0}}, "use_bias": true, "activity_regularizer": null, "activation": "linear", "bias_initializer": {"class_name": "Zeros", "config": {"dtype": "float32"}}, "dilation_rate": [1, 1], "kernel_constraint": null, "dtype": "float32", "trainable": true, "strides": [1, 1], "kernel_initializer": {"class_name": "VarianceScaling", "config": {"mode": "fan_in", "scale": 2.0, "seed": null, "dtype": "float32", "distribution": "truncated_normal"}}, "kernel_size": [3, 3], "padding": "same", "name": "conv2d"}, "class_name": "Conv2D"}, {"name": "batch_normalization", "inbound_nodes": [[["conv2d", 0, 0, {}]]], "config": {"axis": [3], "center": true, "beta_regularizer": null, "name": "batch_normalization", "scale": true, "momentum": 0.99, "gamma_constraint": null, "beta_initializer": {"class_name": "Zeros", "config": {"dtype": "float32"}}, "epsilon": 0.001, "beta_constraint": null, "trainable": true, "moving_mean_initializer": {"class_name": "Zeros", "config": {"dtype": "float32"}}, "moving_variance_initializer": {"class_name": "Ones", "config": {"dtype": "float32"}}, "gamma_initializer": {"class_name": "Ones", "config": {"dtype": "float32"}}, "dtype": "float32", "gamma_regularizer": null}, "class_name": "BatchNormalization"}, {"name": "activation", "inbound_nodes": [[["batch_normalization", 0, 0, {}]]], "config": {"trainable": true, "activation": "relu", "dtype": "float32", "name": "activation"}, "class_name": "Activation"}, {"name": "conv2d_1", "inbound_nodes": [[["activation", 0, 0, {}]]], "config": {"bias_constraint": null, "filters": 16, "bias_regularizer": null, "data_format": "channels_last", "kernel_regularizer": {"class_name": "L1L2", "config": {"l2": 9.999999747378752e-05, "l1": 0.0}}, "use_bias": true, "activity_regularizer": null, "activation": "linear", "bias_initializer": {"class_name": "Zeros", "config": {"dtype": "float32"}}, "dilation_rate": [1, 1], "kernel_constraint": null, "dtype": "float32", "trainable": true, "strides": [1, 1], "kernel_initializer": {"class_name": "VarianceScaling", "config": {"mode": "fan_in", "scale": 2.0, "seed": null, "dtype": "float32", "distribution": "truncated_normal"}}, "kernel_size": [3, 3], "padding": "same", "name": "conv2d_1"}, "class_name": "Conv2D"}, {"name": "batch_normalization_1", "inbound_nodes": [[["conv2d_1", 0, 0, {}]]], "config": {"axis": [3], "center": true, "beta_regularizer": null, "name": "batch_normalization_1", "scale": true, "momentum": 0.99, "gamma_constraint": null, "beta_initializer": {"class_name": "Zeros", "config": {"dtype": "float32"}}, "epsilon": 0.001, "beta_constraint": null, "trainable": true, "moving_mean_initializer": {"class_name": "Zeros", "config": {"dtype": "float32"}}, "moving_variance_initializer": {"class_name": "Ones", "config": {"dtype": "float32"}}, "gamma_initializer": {"class_name": "Ones", "config": {"dtype": "float32"}}, "dtype": "float32", "gamma_regularizer": null}, "class_name": "BatchNormalization"}, {"name": "activation_1", "inbound_nodes": [[["batch_normalization_1", 0, 0, {}]]], "config": {"trainable": true, "activation": "relu", "dtype": "float32", "name": "activation_1"}, "class_name": "Activation"}, {"name": "conv2d_2", "inbound_nodes": [[["activation_1", 0, 0, {}]]], "config": {"bias_constraint": null, "filters": 16, "bias_regularizer": null, "data_format": "channels_last", "kernel_regularizer": {"class_name": "L1L2", "config": {"l2": 9.999999747378752e-05, "l1": 0.0}}, "use_bias": true, "activity_regularizer": null, "activation": "linear", "bias_initializer": {"class_name": "Zeros", "config": {"dtype": "float32"}}, "dilation_rate": [1, 1], "kernel_constraint": null, "dtype": "float32", "trainable": true, "strides": [1, 1], "kernel_initializer": {"class_name": "VarianceScaling", "config": {"mode": "fan_in", "scale": 2.0, "seed": null, "dtype": "float32", "distribution": "truncated_normal"}}, "kernel_size": [3, 3], "padding": "same", "name": "conv2d_2"}, "class_name": "Conv2D"}, {"name": "batch_normalization_2", "inbound_nodes": [[["conv2d_2", 0, 0, {}]]], "config": {"axis": [3], "center": true, "beta_regularizer": null, "name": "batch_normalization_2", "scale": true, "momentum": 0.99, "gamma_constraint": null, "beta_initializer": {"class_name": "Zeros", "config": {"dtype": "float32"}}, "epsilon": 0.001, "beta_constraint": null, "trainable": true, "moving_mean_initializer": {"class_name": "Zeros", "config": {"dtype": "float32"}}, "moving_variance_initializer": {"class_name": "Ones", "config": {"dtype": "float32"}}, "gamma_initializer": {"class_name": "Ones", "config": {"dtype": "float32"}}, "dtype": "float32", "gamma_regularizer": null}, "class_name": "BatchNormalization"}, {"name": "add", "inbound_nodes": [[["activation", 0, 0, {}], ["batch_normalization_2", 0, 0, {}]]], "config": {"trainable": true, "dtype": "float32", "name": "add"}, "class_name": "Add"}, {"name": "activation_2", "inbound_nodes": [[["add", 0, 0, {}]]], "config": {"trainable": true, "activation": "relu", "dtype": "float32", "name": "activation_2"}, "class_name": "Activation"}, {"name": "conv2d_3", "inbound_nodes": [[["activation_2", 0, 0, {}]]], "config": {"bias_constraint": null, "filters": 16, "bias_regularizer": null, "data_format": "channels_last", "kernel_regularizer": {"class_name": "L1L2", "config": {"l2": 9.999999747378752e-05, "l1": 0.0}}, "use_bias": true, "activity_regularizer": null, "activation": "linear", "bias_initializer": {"class_name": "Zeros", "config": {"dtype": "float32"}}, "dilation_rate": [1, 1], "kernel_constraint": null, "dtype": "float32", "trainable": true, "strides": [1, 1], "kernel_initializer": {"class_name": "VarianceScaling", "config": {"mode": "fan_in", "scale": 2.0, "seed": null, "dtype": "float32", "distribution": "truncated_normal"}}, "kernel_size": [3, 3], "padding": "same", "name": "conv2d_3"}, "class_name": "Conv2D"}, {"name": "batch_normalization_3", "inbound_nodes": [[["conv2d_3", 0, 0, {}]]], "config": {"axis": [3], "center": true, "beta_regularizer": null, "name": "batch_normalization_3", "scale": true, "momentum": 0.99, "gamma_constraint": null, "beta_initializer": {"class_name": "Zeros", "config": {"dtype": "float32"}}, "epsilon": 0.001, "beta_constraint": null, "trainable": true, "moving_mean_initializer": {"class_name": "Zeros", "config": {"dtype": "float32"}}, "moving_variance_initializer": {"class_name": "Ones", "config": {"dtype": "float32"}}, "gamma_initializer": {"class_name": "Ones", "config": {"dtype": "float32"}}, "dtype": "float32", "gamma_regularizer": null}, "class_name": "BatchNormalization"}, {"name": "activation_3", "inbound_nodes": [[["batch_normalization_3", 0, 0, {}]]], "config": {"trainable": true, "activation": "relu", "dtype": "float32", "name": "activation_3"}, "class_name": "Activation"}, {"name": "conv2d_4", "inbound_nodes": [[["activation_3", 0, 0, {}]]], "config": {"bias_constraint": null, "filters": 16, "bias_regularizer": null, "data_format": "channels_last", "kernel_regularizer": {"class_name": "L1L2", "config": {"l2": 9.999999747378752e-05, "l1": 0.0}}, "use_bias": true, "activity_regularizer": null, "activation": "linear", "bias_initializer": {"class_name": "Zeros", "config": {"dtype": "float32"}}, "dilation_rate": [1, 1], "kernel_constraint": null, "dtype": "float32", "trainable": true, "strides": [1, 1], "kernel_initializer": {"class_name": "VarianceScaling", "config": {"mode": "fan_in", "scale": 2.0, "seed": null, "dtype": "float32", "distribution": "truncated_normal"}}, "kernel_size": [3, 3], "padding": "same", "name": "conv2d_4"}, "class_name": "Conv2D"}, {"name": "batch_normalization_4", "inbound_nodes": [[["conv2d_4", 0, 0, {}]]], "config": {"axis": [3], "center": true, "beta_regularizer": null, "name": "batch_normalization_4", "scale": true, "momentum": 0.99, "gamma_constraint": null, "beta_initializer": {"class_name": "Zeros", "config": {"dtype": "float32"}}, "epsilon": 0.001, "beta_constraint": null, "trainable": true, "moving_mean_initializer": {"class_name": "Zeros", "config": {"dtype": "float32"}}, "moving_variance_initializer": {"class_name": "Ones", "config": {"dtype": "float32"}}, "gamma_initializer": {"class_name": "Ones", "config": {"dtype": "float32"}}, "dtype": "float32", "gamma_regularizer": null}, "class_name": "BatchNormalization"}, {"name": "add_1", "inbound_nodes": [[["activation_2", 0, 0, {}], ["batch_normalization_4", 0, 0, {}]]], "config": {"trainable": true, "dtype": "float32", "name": "add_1"}, "class_name": "Add"}, {"name": "activation_4", "inbound_nodes": [[["add_1", 0, 0, {}]]], "config": {"trainable": true, "activation": "relu", "dtype": "float32", "name": "activation_4"}, "class_name": "Activation"}, {"name": "conv2d_5", "inbound_nodes": [[["activation_4", 0, 0, {}]]], "config": {"bias_constraint": null, "filters": 16, "bias_regularizer": null, "data_format": "channels_last", "kernel_regularizer": {"class_name": "L1L2", "config": {"l2": 9.999999747378752e-05, "l1": 0.0}}, "use_bias": true, "activity_regularizer": null, "activation": "linear", "bias_initializer": {"class_name": "Zeros", "config": {"dtype": "float32"}}, "dilation_rate": [1, 1], "kernel_constraint": null, "dtype": "float32", "trainable": true, "strides": [1, 1], "kernel_initializer": {"class_name": "VarianceScaling", "config": {"mode": "fan_in", "scale": 2.0, "seed": null, "dtype": "float32", "distribution": "truncated_normal"}}, "kernel_size": [3, 3], "padding": "same", "name": "conv2d_5"}, "class_name": "Conv2D"}, {"name": "batch_normalization_5", "inbound_nodes": [[["conv2d_5", 0, 0, {}]]], "config": {"axis": [3], "center": true, "beta_regularizer": null, "name": "batch_normalization_5", "scale": true, "momentum": 0.99, "gamma_constraint": null, "beta_initializer": {"class_name": "Zeros", "config": {"dtype": "float32"}}, "epsilon": 0.001, "beta_constraint": null, "trainable": true, "moving_mean_initializer": {"class_name": "Zeros", "config": {"dtype": "float32"}}, "moving_variance_initializer": {"class_name": "Ones", "config": {"dtype": "float32"}}, "gamma_initializer": {"class_name": "Ones", "config": {"dtype": "float32"}}, "dtype": "float32", "gamma_regularizer": null}, "class_name": "BatchNormalization"}, {"name": "activation_5", "inbound_nodes": [[["batch_normalization_5", 0, 0, {}]]], "config": {"trainable": true, "activation": "relu", "dtype": "float32", "name": "activation_5"}, "class_name": "Activation"}, {"name": "conv2d_6", "inbound_nodes": [[["activation_5", 0, 0, {}]]], "config": {"bias_constraint": null, "filters": 16, "bias_regularizer": null, "data_format": "channels_last", "kernel_regularizer": {"class_name": "L1L2", "config": {"l2": 9.999999747378752e-05, "l1": 0.0}}, "use_bias": true, "activity_regularizer": null, "activation": "linear", "bias_initializer": {"class_name": "Zeros", "config": {"dtype": "float32"}}, "dilation_rate": [1, 1], "kernel_constraint": null, "dtype": "float32", "trainable": true, "strides": [1, 1], "kernel_initializer": {"class_name": "VarianceScaling", "config": {"mode": "fan_in", "scale": 2.0, "seed": null, "dtype": "float32", "distribution": "truncated_normal"}}, "kernel_size": [3, 3], "padding": "same", "name": "conv2d_6"}, "class_name": "Conv2D"}, {"name": "batch_normalization_6", "inbound_nodes": [[["conv2d_6", 0, 0, {}]]], "config": {"axis": [3], "center": true, "beta_regularizer": null, "name": "batch_normalization_6", "scale": true, "momentum": 0.99, "gamma_constraint": null, "beta_initializer": {"class_name": "Zeros", "config": {"dtype": "float32"}}, "epsilon": 0.001, "beta_constraint": null, "trainable": true, "moving_mean_initializer": {"class_name": "Zeros", "config": {"dtype": "float32"}}, "moving_variance_initializer": {"class_name": "Ones", "config": {"dtype": "float32"}}, "gamma_initializer": {"class_name": "Ones", "config": {"dtype": "float32"}}, "dtype": "float32", "gamma_regularizer": null}, "class_name": "BatchNormalization"}, {"name": "add_2", "inbound_nodes": [[["activation_4", 0, 0, {}], ["batch_normalization_6", 0, 0, {}]]], "config": {"trainable": true, "dtype": "float32", "name": "add_2"}, "class_name": "Add"}, {"name": "activation_6", "inbound_nodes": [[["add_2", 0, 0, {}]]], "config": {"trainable": true, "activation": "relu", "dtype": "float32", "name": "activation_6"}, "class_name": "Activation"}, {"name": "conv2d_7", "inbound_nodes": [[["activation_6", 0, 0, {}]]], "config": {"bias_constraint": null, "filters": 32, "bias_regularizer": null, "data_format": "channels_last", "kernel_regularizer": {"class_name": "L1L2", "config": {"l2": 9.999999747378752e-05, "l1": 0.0}}, "use_bias": true, "activity_regularizer": null, "activation": "linear", "bias_initializer": {"class_name": "Zeros", "config": {"dtype": "float32"}}, "dilation_rate": [1, 1], "kernel_constraint": null, "dtype": "float32", "trainable": true, "strides": [2, 2], "kernel_initializer": {"class_name": "VarianceScaling", "config": {"mode": "fan_in", "scale": 2.0, "seed": null, "dtype": "float32", "distribution": "truncated_normal"}}, "kernel_size": [3, 3], "padding": "same", "name": "conv2d_7"}, "class_name": "Conv2D"}, {"name": "batch_normalization_7", "inbound_nodes": [[["conv2d_7", 0, 0, {}]]], "config": {"axis": [3], "center": true, "beta_regularizer": null, "name": "batch_normalization_7", "scale": true, "momentum": 0.99, "gamma_constraint": null, "beta_initializer": {"class_name": "Zeros", "config": {"dtype": "float32"}}, "epsilon": 0.001, "beta_constraint": null, "trainable": true, "moving_mean_initializer": {"class_name": "Zeros", "config": {"dtype": "float32"}}, "moving_variance_initializer": {"class_name": "Ones", "config": {"dtype": "float32"}}, "gamma_initializer": {"class_name": "Ones", "config": {"dtype": "float32"}}, "dtype": "float32", "gamma_regularizer": null}, "class_name": "BatchNormalization"}, {"name": "activation_7", "inbound_nodes": [[["batch_normalization_7", 0, 0, {}]]], "config": {"trainable": true, "activation": "relu", "dtype": "float32", "name": "activation_7"}, "class_name": "Activation"}, {"name": "conv2d_8", "inbound_nodes": [[["activation_7", 0, 0, {}]]], "config": {"bias_constraint": null, "filters": 32, "bias_regularizer": null, "data_format": "channels_last", "kernel_regularizer": {"class_name": "L1L2", "config": {"l2": 9.999999747378752e-05, "l1": 0.0}}, "use_bias": true, "activity_regularizer": null, "activation": "linear", "bias_initializer": {"class_name": "Zeros", "config": {"dtype": "float32"}}, "dilation_rate": [1, 1], "kernel_constraint": null, "dtype": "float32", "trainable": true, "strides": [1, 1], "kernel_initializer": {"class_name": "VarianceScaling", "config": {"mode": "fan_in", "scale": 2.0, "seed": null, "dtype": "float32", "distribution": "truncated_normal"}}, "kernel_size": [3, 3], "padding": "same", "name": "conv2d_8"}, "class_name": "Conv2D"}, {"name": "conv2d_9", "inbound_nodes": [[["activation_6", 0, 0, {}]]], "config": {"bias_constraint": null, "filters": 32, "bias_regularizer": null, "data_format": "channels_last", "kernel_regularizer": {"class_name": "L1L2", "config": {"l2": 9.999999747378752e-05, "l1": 0.0}}, "use_bias": true, "activity_regularizer": null, "activation": "linear", "bias_initializer": {"class_name": "Zeros", "config": {"dtype": "float32"}}, "dilation_rate": [1, 1], "kernel_constraint": null, "dtype": "float32", "trainable": true, "strides": [2, 2], "kernel_initializer": {"class_name": "VarianceScaling", "config": {"mode": "fan_in", "scale": 2.0, "seed": null, "dtype": "float32", "distribution": "truncated_normal"}}, "kernel_size": [1, 1], "padding": "same", "name": "conv2d_9"}, "class_name": "Conv2D"}, {"name": "batch_normalization_8", "inbound_nodes": [[["conv2d_8", 0, 0, {}]]], "config": {"axis": [3], "center": true, "beta_regularizer": null, "name": "batch_normalization_8", "scale": true, "momentum": 0.99, "gamma_constraint": null, "beta_initializer": {"class_name": "Zeros", "config": {"dtype": "float32"}}, "epsilon": 0.001, "beta_constraint": null, "trainable": true, "moving_mean_initializer": {"class_name": "Zeros", "config": {"dtype": "float32"}}, "moving_variance_initializer": {"class_name": "Ones", "config": {"dtype": "float32"}}, "gamma_initializer": {"class_name": "Ones", "config": {"dtype": "float32"}}, "dtype": "float32", "gamma_regularizer": null}, "class_name": "BatchNormalization"}, {"name": "add_3", "inbound_nodes": [[["conv2d_9", 0, 0, {}], ["batch_normalization_8", 0, 0, {}]]], "config": {"trainable": true, "dtype": "float32", "name": "add_3"}, "class_name": "Add"}, {"name": "activation_8", "inbound_nodes": [[["add_3", 0, 0, {}]]], "config": {"trainable": true, "activation": "relu", "dtype": "float32", "name": "activation_8"}, "class_name": "Activation"}, {"name": "conv2d_10", "inbound_nodes": [[["activation_8", 0, 0, {}]]], "config": {"bias_constraint": null, "filters": 32, "bias_regularizer": null, "data_format": "channels_last", "kernel_regularizer": {"class_name": "L1L2", "config": {"l2": 9.999999747378752e-05, "l1": 0.0}}, "use_bias": true, "activity_regularizer": null, "activation": "linear", "bias_initializer": {"class_name": "Zeros", "config": {"dtype": "float32"}}, "dilation_rate": [1, 1], "kernel_constraint": null, "dtype": "float32", "trainable": true, "strides": [1, 1], "kernel_initializer": {"class_name": "VarianceScaling", "config": {"mode": "fan_in", "scale": 2.0, "seed": null, "dtype": "float32", "distribution": "truncated_normal"}}, "kernel_size": [3, 3], "padding": "same", "name": "conv2d_10"}, "class_name": "Conv2D"}, {"name": "batch_normalization_9", "inbound_nodes": [[["conv2d_10", 0, 0, {}]]], "config": {"axis": [3], "center": true, "beta_regularizer": null, "name": "batch_normalization_9", "scale": true, "momentum": 0.99, "gamma_constraint": null, "beta_initializer": {"class_name": "Zeros", "config": {"dtype": "float32"}}, "epsilon": 0.001, "beta_constraint": null, "trainable": true, "moving_mean_initializer": {"class_name": "Zeros", "config": {"dtype": "float32"}}, "moving_variance_initializer": {"class_name": "Ones", "config": {"dtype": "float32"}}, "gamma_initializer": {"class_name": "Ones", "config": {"dtype": "float32"}}, "dtype": "float32", "gamma_regularizer": null}, "class_name": "BatchNormalization"}, {"name": "activation_9", "inbound_nodes": [[["batch_normalization_9", 0, 0, {}]]], "config": {"trainable": true, "activation": "relu", "dtype": "float32", "name": "activation_9"}, "class_name": "Activation"}, {"name": "conv2d_11", "inbound_nodes": [[["activation_9", 0, 0, {}]]], "config": {"bias_constraint": null, "filters": 32, "bias_regularizer": null, "data_format": "channels_last", "kernel_regularizer": {"class_name": "L1L2", "config": {"l2": 9.999999747378752e-05, "l1": 0.0}}, "use_bias": true, "activity_regularizer": null, "activation": "linear", "bias_initializer": {"class_name": "Zeros", "config": {"dtype": "float32"}}, "dilation_rate": [1, 1], "kernel_constraint": null, "dtype": "float32", "trainable": true, "strides": [1, 1], "kernel_initializer": {"class_name": "VarianceScaling", "config": {"mode": "fan_in", "scale": 2.0, "seed": null, "dtype": "float32", "distribution": "truncated_normal"}}, "kernel_size": [3, 3], "padding": "same", "name": "conv2d_11"}, "class_name": "Conv2D"}, {"name": "batch_normalization_10", "inbound_nodes": [[["conv2d_11", 0, 0, {}]]], "config": {"axis": [3], "center": true, "beta_regularizer": null, "name": "batch_normalization_10", "scale": true, "momentum": 0.99, "gamma_constraint": null, "beta_initializer": {"class_name": "Zeros", "config": {"dtype": "float32"}}, "epsilon": 0.001, "beta_constraint": null, "trainable": true, "moving_mean_initializer": {"class_name": "Zeros", "config": {"dtype": "float32"}}, "moving_variance_initializer": {"class_name": "Ones", "config": {"dtype": "float32"}}, "gamma_initializer": {"class_name": "Ones", "config": {"dtype": "float32"}}, "dtype": "float32", "gamma_regularizer": null}, "class_name": "BatchNormalization"}, {"name": "add_4", "inbound_nodes": [[["activation_8", 0, 0, {}], ["batch_normalization_10", 0, 0, {}]]], "config": {"trainable": true, "dtype": "float32", "name": "add_4"}, "class_name": "Add"}, {"name": "activation_10", "inbound_nodes": [[["add_4", 0, 0, {}]]], "config": {"trainable": true, "activation": "relu", "dtype": "float32", "name": "activation_10"}, "class_name": "Activation"}, {"name": "conv2d_12", "inbound_nodes": [[["activation_10", 0, 0, {}]]], "config": {"bias_constraint": null, "filters": 32, "bias_regularizer": null, "data_format": "channels_last", "kernel_regularizer": {"class_name": "L1L2", "config": {"l2": 9.999999747378752e-05, "l1": 0.0}}, "use_bias": true, "activity_regularizer": null, "activation": "linear", "bias_initializer": {"class_name": "Zeros", "config": {"dtype": "float32"}}, "dilation_rate": [1, 1], "kernel_constraint": null, "dtype": "float32", "trainable": true, "strides": [1, 1], "kernel_initializer": {"class_name": "VarianceScaling", "config": {"mode": "fan_in", "scale": 2.0, "seed": null, "dtype": "float32", "distribution": "truncated_normal"}}, "kernel_size": [3, 3], "padding": "same", "name": "conv2d_12"}, "class_name": "Conv2D"}, {"name": "batch_normalization_11", "inbound_nodes": [[["conv2d_12", 0, 0, {}]]], "config": {"axis": [3], "center": true, "beta_regularizer": null, "name": "batch_normalization_11", "scale": true, "momentum": 0.99, "gamma_constraint": null, "beta_initializer": {"class_name": "Zeros", "config": {"dtype": "float32"}}, "epsilon": 0.001, "beta_constraint": null, "trainable": true, "moving_mean_initializer": {"class_name": "Zeros", "config": {"dtype": "float32"}}, "moving_variance_initializer": {"class_name": "Ones", "config": {"dtype": "float32"}}, "gamma_initializer": {"class_name": "Ones", "config": {"dtype": "float32"}}, "dtype": "float32", "gamma_regularizer": null}, "class_name": "BatchNormalization"}, {"name": "activation_11", "inbound_nodes": [[["batch_normalization_11", 0, 0, {}]]], "config": {"trainable": true, "activation": "relu", "dtype": "float32", "name": "activation_11"}, "class_name": "Activation"}, {"name": "conv2d_13", "inbound_nodes": [[["activation_11", 0, 0, {}]]], "config": {"bias_constraint": null, "filters": 32, "bias_regularizer": null, "data_format": "channels_last", "kernel_regularizer": {"class_name": "L1L2", "config": {"l2": 9.999999747378752e-05, "l1": 0.0}}, "use_bias": true, "activity_regularizer": null, "activation": "linear", "bias_initializer": {"class_name": "Zeros", "config": {"dtype": "float32"}}, "dilation_rate": [1, 1], "kernel_constraint": null, "dtype": "float32", "trainable": true, "strides": [1, 1], "kernel_initializer": {"class_name": "VarianceScaling", "config": {"mode": "fan_in", "scale": 2.0, "seed": null, "dtype": "float32", "distribution": "truncated_normal"}}, "kernel_size": [3, 3], "padding": "same", "name": "conv2d_13"}, "class_name": "Conv2D"}, {"name": "batch_normalization_12", "inbound_nodes": [[["conv2d_13", 0, 0, {}]]], "config": {"axis": [3], "center": true, "beta_regularizer": null, "name": "batch_normalization_12", "scale": true, "momentum": 0.99, "gamma_constraint": null, "beta_initializer": {"class_name": "Zeros", "config": {"dtype": "float32"}}, "epsilon": 0.001, "beta_constraint": null, "trainable": true, "moving_mean_initializer": {"class_name": "Zeros", "config": {"dtype": "float32"}}, "moving_variance_initializer": {"class_name": "Ones", "config": {"dtype": "float32"}}, "gamma_initializer": {"class_name": "Ones", "config": {"dtype": "float32"}}, "dtype": "float32", "gamma_regularizer": null}, "class_name": "BatchNormalization"}, {"name": "add_5", "inbound_nodes": [[["activation_10", 0, 0, {}], ["batch_normalization_12", 0, 0, {}]]], "config": {"trainable": true, "dtype": "float32", "name": "add_5"}, "class_name": "Add"}, {"name": "activation_12", "inbound_nodes": [[["add_5", 0, 0, {}]]], "config": {"trainable": true, "activation": "relu", "dtype": "float32", "name": "activation_12"}, "class_name": "Activation"}, {"name": "conv2d_14", "inbound_nodes": [[["activation_12", 0, 0, {}]]], "config": {"bias_constraint": null, "filters": 64, "bias_regularizer": null, "data_format": "channels_last", "kernel_regularizer": {"class_name": "L1L2", "config": {"l2": 9.999999747378752e-05, "l1": 0.0}}, "use_bias": true, "activity_regularizer": null, "activation": "linear", "bias_initializer": {"class_name": "Zeros", "config": {"dtype": "float32"}}, "dilation_rate": [1, 1], "kernel_constraint": null, "dtype": "float32", "trainable": true, "strides": [2, 2], "kernel_initializer": {"class_name": "VarianceScaling", "config": {"mode": "fan_in", "scale": 2.0, "seed": null, "dtype": "float32", "distribution": "truncated_normal"}}, "kernel_size": [3, 3], "padding": "same", "name": "conv2d_14"}, "class_name": "Conv2D"}, {"name": "batch_normalization_13", "inbound_nodes": [[["conv2d_14", 0, 0, {}]]], "config": {"axis": [3], "center": true, "beta_regularizer": null, "name": "batch_normalization_13", "scale": true, "momentum": 0.99, "gamma_constraint": null, "beta_initializer": {"class_name": "Zeros", "config": {"dtype": "float32"}}, "epsilon": 0.001, "beta_constraint": null, "trainable": true, "moving_mean_initializer": {"class_name": "Zeros", "config": {"dtype": "float32"}}, "moving_variance_initializer": {"class_name": "Ones", "config": {"dtype": "float32"}}, "gamma_initializer": {"class_name": "Ones", "config": {"dtype": "float32"}}, "dtype": "float32", "gamma_regularizer": null}, "class_name": "BatchNormalization"}, {"name": "activation_13", "inbound_nodes": [[["batch_normalization_13", 0, 0, {}]]], "config": {"trainable": true, "activation": "relu", "dtype": "float32", "name": "activation_13"}, "class_name": "Activation"}, {"name": "conv2d_15", "inbound_nodes": [[["activation_13", 0, 0, {}]]], "config": {"bias_constraint": null, "filters": 64, "bias_regularizer": null, "data_format": "channels_last", "kernel_regularizer": {"class_name": "L1L2", "config": {"l2": 9.999999747378752e-05, "l1": 0.0}}, "use_bias": true, "activity_regularizer": null, "activation": "linear", "bias_initializer": {"class_name": "Zeros", "config": {"dtype": "float32"}}, "dilation_rate": [1, 1], "kernel_constraint": null, "dtype": "float32", "trainable": true, "strides": [1, 1], "kernel_initializer": {"class_name": "VarianceScaling", "config": {"mode": "fan_in", "scale": 2.0, "seed": null, "dtype": "float32", "distribution": "truncated_normal"}}, "kernel_size": [3, 3], "padding": "same", "name": "conv2d_15"}, "class_name": "Conv2D"}, {"name": "conv2d_16", "inbound_nodes": [[["activation_12", 0, 0, {}]]], "config": {"bias_constraint": null, "filters": 64, "bias_regularizer": null, "data_format": "channels_last", "kernel_regularizer": {"class_name": "L1L2", "config": {"l2": 9.999999747378752e-05, "l1": 0.0}}, "use_bias": true, "activity_regularizer": null, "activation": "linear", "bias_initializer": {"class_name": "Zeros", "config": {"dtype": "float32"}}, "dilation_rate": [1, 1], "kernel_constraint": null, "dtype": "float32", "trainable": true, "strides": [2, 2], "kernel_initializer": {"class_name": "VarianceScaling", "config": {"mode": "fan_in", "scale": 2.0, "seed": null, "dtype": "float32", "distribution": "truncated_normal"}}, "kernel_size": [1, 1], "padding": "same", "name": "conv2d_16"}, "class_name": "Conv2D"}, {"name": "batch_normalization_14", "inbound_nodes": [[["conv2d_15", 0, 0, {}]]], "config": {"axis": [3], "center": true, "beta_regularizer": null, "name": "batch_normalization_14", "scale": true, "momentum": 0.99, "gamma_constraint": null, "beta_initializer": {"class_name": "Zeros", "config": {"dtype": "float32"}}, "epsilon": 0.001, "beta_constraint": null, "trainable": true, "moving_mean_initializer": {"class_name": "Zeros", "config": {"dtype": "float32"}}, "moving_variance_initializer": {"class_name": "Ones", "config": {"dtype": "float32"}}, "gamma_initializer": {"class_name": "Ones", "config": {"dtype": "float32"}}, "dtype": "float32", "gamma_regularizer": null}, "class_name": "BatchNormalization"}, {"name": "add_6", "inbound_nodes": [[["conv2d_16", 0, 0, {}], ["batch_normalization_14", 0, 0, {}]]], "config": {"trainable": true, "dtype": "float32", "name": "add_6"}, "class_name": "Add"}, {"name": "activation_14", "inbound_nodes": [[["add_6", 0, 0, {}]]], "config": {"trainable": true, "activation": "relu", "dtype": "float32", "name": "activation_14"}, "class_name": "Activation"}, {"name": "conv2d_17", "inbound_nodes": [[["activation_14", 0, 0, {}]]], "config": {"bias_constraint": null, "filters": 64, "bias_regularizer": null, "data_format": "channels_last", "kernel_regularizer": {"class_name": "L1L2", "config": {"l2": 9.999999747378752e-05, "l1": 0.0}}, "use_bias": true, "activity_regularizer": null, "activation": "linear", "bias_initializer": {"class_name": "Zeros", "config": {"dtype": "float32"}}, "dilation_rate": [1, 1], "kernel_constraint": null, "dtype": "float32", "trainable": true, "strides": [1, 1], "kernel_initializer": {"class_name": "VarianceScaling", "config": {"mode": "fan_in", "scale": 2.0, "seed": null, "dtype": "float32", "distribution": "truncated_normal"}}, "kernel_size": [3, 3], "padding": "same", "name": "conv2d_17"}, "class_name": "Conv2D"}, {"name": "batch_normalization_15", "inbound_nodes": [[["conv2d_17", 0, 0, {}]]], "config": {"axis": [3], "center": true, "beta_regularizer": null, "name": "batch_normalization_15", "scale": true, "momentum": 0.99, "gamma_constraint": null, "beta_initializer": {"class_name": "Zeros", "config": {"dtype": "float32"}}, "epsilon": 0.001, "beta_constraint": null, "trainable": true, "moving_mean_initializer": {"class_name": "Zeros", "config": {"dtype": "float32"}}, "moving_variance_initializer": {"class_name": "Ones", "config": {"dtype": "float32"}}, "gamma_initializer": {"class_name": "Ones", "config": {"dtype": "float32"}}, "dtype": "float32", "gamma_regularizer": null}, "class_name": "BatchNormalization"}, {"name": "activation_15", "inbound_nodes": [[["batch_normalization_15", 0, 0, {}]]], "config": {"trainable": true, "activation": "relu", "dtype": "float32", "name": "activation_15"}, "class_name": "Activation"}, {"name": "conv2d_18", "inbound_nodes": [[["activation_15", 0, 0, {}]]], "config": {"bias_constraint": null, "filters": 64, "bias_regularizer": null, "data_format": "channels_last", "kernel_regularizer": {"class_name": "L1L2", "config": {"l2": 9.999999747378752e-05, "l1": 0.0}}, "use_bias": true, "activity_regularizer": null, "activation": "linear", "bias_initializer": {"class_name": "Zeros", "config": {"dtype": "float32"}}, "dilation_rate": [1, 1], "kernel_constraint": null, "dtype": "float32", "trainable": true, "strides": [1, 1], "kernel_initializer": {"class_name": "VarianceScaling", "config": {"mode": "fan_in", "scale": 2.0, "seed": null, "dtype": "float32", "distribution": "truncated_normal"}}, "kernel_size": [3, 3], "padding": "same", "name": "conv2d_18"}, "class_name": "Conv2D"}, {"name": "batch_normalization_16", "inbound_nodes": [[["conv2d_18", 0, 0, {}]]], "config": {"axis": [3], "center": true, "beta_regularizer": null, "name": "batch_normalization_16", "scale": true, "momentum": 0.99, "gamma_constraint": null, "beta_initializer": {"class_name": "Zeros", "config": {"dtype": "float32"}}, "epsilon": 0.001, "beta_constraint": null, "trainable": true, "moving_mean_initializer": {"class_name": "Zeros", "config": {"dtype": "float32"}}, "moving_variance_initializer": {"class_name": "Ones", "config": {"dtype": "float32"}}, "gamma_initializer": {"class_name": "Ones", "config": {"dtype": "float32"}}, "dtype": "float32", "gamma_regularizer": null}, "class_name": "BatchNormalization"}, {"name": "add_7", "inbound_nodes": [[["activation_14", 0, 0, {}], ["batch_normalization_16", 0, 0, {}]]], "config": {"trainable": true, "dtype": "float32", "name": "add_7"}, "class_name": "Add"}, {"name": "activation_16", "inbound_nodes": [[["add_7", 0, 0, {}]]], "config": {"trainable": true, "activation": "relu", "dtype": "float32", "name": "activation_16"}, "class_name": "Activation"}, {"name": "conv2d_19", "inbound_nodes": [[["activation_16", 0, 0, {}]]], "config": {"bias_constraint": null, "filters": 64, "bias_regularizer": null, "data_format": "channels_last", "kernel_regularizer": {"class_name": "L1L2", "config": {"l2": 9.999999747378752e-05, "l1": 0.0}}, "use_bias": true, "activity_regularizer": null, "activation": "linear", "bias_initializer": {"class_name": "Zeros", "config": {"dtype": "float32"}}, "dilation_rate": [1, 1], "kernel_constraint": null, "dtype": "float32", "trainable": true, "strides": [1, 1], "kernel_initializer": {"class_name": "VarianceScaling", "config": {"mode": "fan_in", "scale": 2.0, "seed": null, "dtype": "float32", "distribution": "truncated_normal"}}, "kernel_size": [3, 3], "padding": "same", "name": "conv2d_19"}, "class_name": "Conv2D"}, {"name": "batch_normalization_17", "inbound_nodes": [[["conv2d_19", 0, 0, {}]]], "config": {"axis": [3], "center": true, "beta_regularizer": null, "name": "batch_normalization_17", "scale": true, "momentum": 0.99, "gamma_constraint": null, "beta_initializer": {"class_name": "Zeros", "config": {"dtype": "float32"}}, "epsilon": 0.001, "beta_constraint": null, "trainable": true, "moving_mean_initializer": {"class_name": "Zeros", "config": {"dtype": "float32"}}, "moving_variance_initializer": {"class_name": "Ones", "config": {"dtype": "float32"}}, "gamma_initializer": {"class_name": "Ones", "config": {"dtype": "float32"}}, "dtype": "float32", "gamma_regularizer": null}, "class_name": "BatchNormalization"}, {"name": "activation_17", "inbound_nodes": [[["batch_normalization_17", 0, 0, {}]]], "config": {"trainable": true, "activation": "relu", "dtype": "float32", "name": "activation_17"}, "class_name": "Activation"}, {"name": "conv2d_20", "inbound_nodes": [[["activation_17", 0, 0, {}]]], "config": {"bias_constraint": null, "filters": 64, "bias_regularizer": null, "data_format": "channels_last", "kernel_regularizer": {"class_name": "L1L2", "config": {"l2": 9.999999747378752e-05, "l1": 0.0}}, "use_bias": true, "activity_regularizer": null, "activation": "linear", "bias_initializer": {"class_name": "Zeros", "config": {"dtype": "float32"}}, "dilation_rate": [1, 1], "kernel_constraint": null, "dtype": "float32", "trainable": true, "strides": [1, 1], "kernel_initializer": {"class_name": "VarianceScaling", "config": {"mode": "fan_in", "scale": 2.0, "seed": null, "dtype": "float32", "distribution": "truncated_normal"}}, "kernel_size": [3, 3], "padding": "same", "name": "conv2d_20"}, "class_name": "Conv2D"}, {"name": "batch_normalization_18", "inbound_nodes": [[["conv2d_20", 0, 0, {}]]], "config": {"axis": [3], "center": true, "beta_regularizer": null, "name": "batch_normalization_18", "scale": true, "momentum": 0.99, "gamma_constraint": null, "beta_initializer": {"class_name": "Zeros", "config": {"dtype": "float32"}}, "epsilon": 0.001, "beta_constraint": null, "trainable": true, "moving_mean_initializer": {"class_name": "Zeros", "config": {"dtype": "float32"}}, "moving_variance_initializer": {"class_name": "Ones", "config": {"dtype": "float32"}}, "gamma_initializer": {"class_name": "Ones", "config": {"dtype": "float32"}}, "dtype": "float32", "gamma_regularizer": null}, "class_name": "BatchNormalization"}, {"name": "add_8", "inbound_nodes": [[["activation_16", 0, 0, {}], ["batch_normalization_18", 0, 0, {}]]], "config": {"trainable": true, "dtype": "float32", "name": "add_8"}, "class_name": "Add"}, {"name": "activation_18", "inbound_nodes": [[["add_8", 0, 0, {}]]], "config": {"trainable": true, "activation": "relu", "dtype": "float32", "name": "activation_18"}, "class_name": "Activation"}, {"name": "average_pooling2d", "inbound_nodes": [[["activation_18", 0, 0, {}]]], "config": {"pool_size": [2, 2], "strides": [2, 2], "data_format": "channels_last", "trainable": true, "dtype": "float32", "padding": "valid", "name": "average_pooling2d"}, "class_name": "AveragePooling2D"}, {"name": "flatten", "inbound_nodes": [[["average_pooling2d", 0, 0, {}]]], "config": {"trainable": true, "data_format": "channels_last", "dtype": "float32", "name": "flatten"}, "class_name": "Flatten"}, {"name": "dense", "inbound_nodes": [[["flatten", 0, 0, {}]]], "config": {"bias_constraint": null, "use_bias": true, "bias_regularizer": null, "kernel_regularizer": null, "activation": "softmax", "activity_regularizer": null, "kernel_initializer": {"class_name": "VarianceScaling", "config": {"mode": "fan_in", "scale": 2.0, "seed": null, "dtype": "float32", "distribution": "truncated_normal"}}, "bias_initializer": {"class_name": "Zeros", "config": {"dtype": "float32"}}, "kernel_constraint": null, "trainable": true, "units": 2, "dtype": "float32", "name": "dense"}, "class_name": "Dense"}]}, "keras_version": "2.1.6-tf", "class_name": "Model"}